gesture_model.tflite (tflite, 768184 bytes, 44 tensors)

arith.constant17 f4 [128]
-0.0037108317 0.021227997 -0.011879956 -0.007953809 0.019405987 -0.0126436995 0.00711079 -0.034201417
-0.0073949 -0.011596432 0.020680292 0.015064391 0.029404337 -0.04749654 -0.008721448 0.04285214
0.031637352 -0.027398959 0.021394087 0.04775471 -0.017116457 0.02823791 0.011769722 0.006835254
0.0257393 0.004286142 0.021217296 0.06316987 -0.0014320005 0.0011029717 0.012580223 0.0014622341
0.02021677 -0.038890857 -0.00019246375 -0.033314954 -0.029297696 0.013446837 0.015989073 0.058113974
-0.0055497284 -0.0101377135 -0.017126996 0.025577607 0.030724678 0.03374506 0.049541537 0.059564978
0.0050014816 -0.029193424 0.0066597178 0.02965195 -0.0029981409 0.049114827 0.037793394 0.019981502
0.033212587 0.008444969 0.021740627 -0.08127624 0.036860343 -0.07110237 0.040997077 0.04016653
0.032799017 0.038079318 0.06381507 0.039398078 -0.026946414 0.015908362 -0.032441657 0.033921447
0.016777989 0.024916932 0.03388932 0.04853163 0.07830683 -0.003959101 0.038284227 0.03802069
0.012110413 0.028222667 -0.054797873 0.06135819 0.004198815 0.039602526 0.012554523 0.03217874
-0.04032492 0.041855864 -0.028276684 0.020585377 0.04100632 -0.02730488 -0.008510283 -0.0055606156
0.03549946 -0.026786841 0.029842323 -0.021999944 -0.005253505 -0.01894733 -0.05908849 -0.0073137525
0.02000698 -0.0029133747 -0.025119655 0.013441668 -0.026966773 0.020994559 0.0025428291 -0.010735534
-0.025045594 0.0027231064 0.07705508 0.053830367 -0.0048585287 0.056183066 -0.007506488 0.030935999
0.027555047 0.0050426717 0.067411266 -0.023618365 -0.010151034 -0.022843216 0.034879696 0.006458436
00000000: 6d31 73bb 56e6 ad3c 26a4 42bc b150 02bc
00000010: 4ef9 9e3c 8527 4fbc a101 e93b c916 0cbd
00000020: eb50 f2bb f6fe 3dbc b769 a93c a3d0 763c
00000030: 5de1 f03c bb8b 42bd 67e4 0ebc ba85 2f3d
00000040: 2b96 013d c873 e0bc a742 af3c 719a 433d
00000050: d037 8cbc 3053 e73c cbd5 403c 44fa df3b
00000060: 39db d23c c472 8c3b e5cf ad3c 345f 813d
00000070: f7b1 bbba 9791 903a 481d 4e3c 6fa8 bf3a
00000080: a49d a53c 054c 1fbd 18d0 49b9 4375 08bd
00000090: b901 f0bc 1f50 5c3c 84fb 823c eb08 6e3d
000000a0: 7fda b5bb a718 26bc ea4d 8cbc 2188 d13c
000000b0: 52b2 fb3c 4338 0a3d 11ec 4a3d 68fa 733d
000000c0: 78e3 a33b 0c27 efbc c339 da3b a5e8 f23c
000000d0: 757c 44bb a12c 493d 3fcd 1a3d 3fb0 a33c
000000e0: ec09 083d c45c 0a3c 6619 b23c 2874 a6bd
000000f0: dffa 163d 1f9e 91bd 8dec 273d a985 243d
00000100: 4358 063d 0ff9 1b3d 7ab1 823d e15f 213d
00000110: babe dcbc 4152 823c 8be1 04bd 37f1 0a3d
00000120: fe71 893c 981e cc3c 87cf 0a3d 1ac9 463d
00000130: 555f a03d 59bb 81bb eccf 1c3d 95bb 1b3d
00000140: c16a 463c 3933 e73c bc73 60bd ba52 7b3d
00000150: 3796 893b 4236 223d 7cb1 4d3c dbcd 033d
00000160: be2b 25bd 0e71 2b3d 81a4 e7bc aaa2 a83c
00000170: 3ef6 273d 7cae dfbc b76e 0bbc d335 b6bb
00000180: e267 113d 1470 dbbc e377 f43c 3a39 b4bc
00000190: 9825 acbb 6e37 9bbc c606 72bd 34a8 efbb
000001a0: aee5 a33c 51ee 3ebb bcc7 cdbc 713a 5c3c
000001b0: 6ce9 dcbc c8fc ab3c 98a5 263b 18e4 2fbc
000001c0: 6b2c cdbc 2576 323b 0ecf 9d3d 3b7d 5c3d
000001d0: 4b34 9fbb 3720 663d fcf8 f5bb 7e6d fd3c
000001e0: 1fbb e13c ff3c a53b eb0e 8a3d 4d7b c1bc
000001f0: 8650 26bc b221 bbbc 03de 0e3d 4aa1 d33b

arith.constant18 f4 [128]
0.012874955 -0.051526878 -0.044016946 -0.031842947 0.009185565 -0.026003141 -0.017119111 0.017368201
-0.0016427293 0.015402161 0.008185503 -0.019142682 0.018917684 0.0159059 -0.004382501 0.021822192
0.028052526 0.0024586436 0.002563722 0.013593709 -0.037538946 -0.019966502 -0.02533791 0.034251887
-0.014064772 -0.04465307 -0.0055412785 -0.02343099 0.009667485 -0.009790288 -0.022977645 0.061004553
-0.0042629796 0.0063637323 0.0018815297 0.001159651 0.00446454 -0.01072158 -0.019578177 -0.00045481848
-0.018045973 0.034162138 0.038466778 0.027684355 0.01612439 -0.006486859 0.026383521 0.032607492
0.0084428545 -0.021875279 0.00683736 0.03249686 0.0007391732 0.013043305 -0.008418928 0.004403696
-0.030618431 -0.01646851 0.0057556676 0.05006457 0.0051131686 -0.025674606 -0.008795623 -0.008290567
-0.030074034 -0.011037784 -0.005607919 -0.0143648395 -0.013953851 -0.025138292 -0.0052925856 0.013157683
0.0008589011 -0.020977963 -0.021355797 -0.005374841 -0.01698691 0.019010479 0.030042768 -0.0058078733
-0.027517376 -0.018349107 0.03823335 0.0005738027 0.009203407 0.020012807 -0.009303904 0.0056577977
-0.019618604 -0.0040790658 -0.0005889412 -0.029426249 -0.014173282 0.026777606 0.012597344 0.01567544
-0.0016597391 0.017682794 -0.03020794 0.024032952 -0.028578268 0.028062182 0.013412941 -0.019805502
-0.015417884 0.036105897 -0.005687498 -0.009593671 -0.008299731 0.02528113 -0.038679235 0.012386905
-0.048484184 -0.012041721 0.021948509 0.006657448 -0.0059138085 0.0013282188 0.007977833 0.005311785
0.011198134 0.042685445 0.008341225 0.031107109 0.011353166 -0.0010858545 -0.013463556 0.012743349
00000000: 7af1 523c d90d 53bd 1d4b 34bd c06d 02bd
00000010: 0d7f 163c 8a04 d5bc 613d 8cbc c247 8e3c
00000020: d950 d7ba 5859 7c3c 7d1c 063c 1dd1 9cbc
00000030: 42f9 9a3c 174d 823c 159b 8fbb 74c4 b23c
00000040: 69ce e53c 3221 213b 1e04 283b 26b8 5e3c
00000050: 70c2 19bd ca90 a3bc 7391 cfbc b54b 0c3d
00000060: ee6f 66bc 23e6 36bd 9d93 b5bb 59f2 bfbc
00000070: 5f64 1e3c 7267 20bc 9d3b bcbc e9df 793d
00000080: 77b0 8bbb db86 d03b a99d f63a 6eff 973a
00000090: 474b 923b 91a9 2fbc 6a62 a0bc b474 eeb9
000000a0: 26d5 93bc 99ed 0b3d 578f 1d3d 4dca e23c
000000b0: 4c17 843c b88f d4bb 4122 d83c 6f8f 053d
000000c0: e653 0a3c c933 b3bc ef0b e03b 6d1b 053d
000000d0: 13c5 413a 96b3 553c 8bef 09bc e14c 903b
000000e0: 81d3 fabc f8e8 86bc 0a9a bc3b 8210 4d3d
000000f0: 5e8c a73b 8d53 d2bc 841b 10bc 29d5 07bc
00000100: d25d f6bc d2d7 34bc a2c2 b7bb 815a 6bbc
00000110: b19e 64bc d2ee cdbc 6d6d adbb 5393 573c
00000120: e127 613a fad9 abbc 5af2 aebc 6f1f b0bb
00000130: 2228 8bbc ddbb 9b3c 401c f63c f94f bebb
00000140: 1f6c e1bc de50 96bc 939a 1c3d 3f6b 163a
00000150: e3c9 163c e6f1 a33c 676f 18bc 0c65 b93b
00000160: 32b7 a0bc afa9 85bb 2d63 1aba 510f f1bc
00000170: 0e37 68bc b65c db3c 1765 4e3c c869 803c
00000180: 9a8b d9ba 82db 903c a476 f7bc c1e0 c43c
00000190: f91c eabc a9e2 e53c f4c1 5b3c 263f a2bc
000001a0: 4b9b 7cbc c7e3 133d 315e babb c62e 1dbc
000001b0: 98fb 07bc 5f1a cf3c 1e6e 1ebd 72f2 4a3c
000001c0: 5a97 46bd a34a 45bc 5ccd b33c b926 da3b
000001d0: 9fc8 c1bb a117 ae3a 75b5 023c 7b0e ae3b
000001e0: 6178 373c efd6 2e3d a2a9 083c 56d4 fe3c
000001f0: a102 3a3c 3b53 8eba 3f96 5cbc 7bc9 503c

arith.constant19 f4 [4, 32]
-3.7710327e-06 6.666726e-05 -9.000931e-06 7.3356564e-06 4.4731754e-05 -3.6288122e-05 -1.2268173e-05 -3.77919e-05
-1.177775e-05 -2.385311e-05 2.8197901e-05 -0.0001151651 -5.5410005e-06 4.8137477e-05 -4.3326512e-05 -2.8125523e-05
-2.6746106e-05 3.598491e-05 0.00017150986 -6.3329526e-06 2.0145104e-05 -7.572956e-05 1.5203747e-05 7.67246e-05
-2.0449916e-05 1.4312583e-05 -8.950627e-06 2.1802876e-05 1.9022833e-05 -3.03281e-05 1.8535366e-05 2.6493617e-05
8.615445e-06 8.596503e-05 4.5328848e-06 8.337651e-06 -2.970331e-05 -3.7053036e-05 1.0669814e-06 -2.8890179e-06
-3.2348842e-05 -5.7404795e-05 1.2648558e-06 2.9055338e-05 -5.6869576e-05 -1.40362445e-05 -1.7927263e-05 2.9302531e-05
-2.6952612e-05 -8.894795e-05 4.289011e-05 4.985879e-05 6.775822e-05 -1.4596853e-05 -9.615691e-05 2.9968548e-06
-3.2391154e-06 -2.2309181e-05 3.5116926e-05 -5.4292454e-06 1.2815953e-05 -2.205348e-05 0.00011223871 -5.349286e-06
3.9834076e-06 -2.8027618e-05 -6.60232e-05 3.5627418e-05 -9.048342e-06 -3.821051e-05 -2.0154757e-05 -3.749041e-06
-2.833855e-05 1.8332988e-05 2.1855492e-05 -2.7490472e-05 -1.3391753e-05 4.7109693e-06 1.8217097e-05 -1.9381861e-05
4.0742547e-05 -1.510269e-05 4.0261777e-05 -3.47321e-05 6.4680944e-06 -1.5921783e-05 -1.291378e-05 -3.5497062e-06
-2.9552748e-06 -1.1032755e-05 9.3587505e-07 -4.8184727e-05 -2.7055372e-05 2.3776693e-05 -2.1902115e-05 -1.6106798e-05
-4.9182203e-05 -4.427487e-06 -6.1222486e-06 -1.8070148e-06 -3.2392905e-05 6.810842e-06 4.853477e-06 -1.4400988e-06
-2.5797738e-06 1.1510647e-06 4.9071814e-06 8.473695e-06 -1.447437e-05 -1.8391365e-05 -8.016599e-06 1.7555596e-05
-1.5539856e-06 1.8329949e-05 -1.0688706e-06 1.3216911e-05 -1.2764645e-05 -7.19837e-05 1.1873375e-05 -9.782666e-06
-1.5253435e-05 -5.7576617e-06 4.5687043e-06 -7.928265e-06 -6.340106e-05 -6.6050898e-06 1.0618006e-05 -6.9654634e-05
00000000: d911 7db6 b6cf 8b38 b402 17b7 cf24 f636
00000010: 5b9e 3b38 1334 18b8 67d3 4db7 be82 1eb8
00000020: 0d99 45b7 2a18 c8b7 888a ec37 cb84 f1b8
00000030: d5ec b9b6 39e7 4938 7db9 35b8 1aef ebb7
00000040: d35c e0b7 81ee 1638 54d7 3339 a67f d4b6
00000050: 48fd a837 ffd0 9eb8 9913 7f37 35e7 a038
00000060: dc8b abb7 1320 7037 a62a 16b7 52e5 b637
00000070: 3993 9f37 1969 feb7 657c 9b37 9c3e de37
00000080: 0e8b 1037 2048 b438 2f19 9836 f0e1 0b37
00000090: 5f2b f9b7 6569 1bb8 3435 8f35 f3e0 41b6
000000a0: 4eae 07b8 eec5 70b8 1dc4 a935 ddbb f337
000000b0: 3e87 6eb8 367d 6bb7 8162 96b7 b5ce f537
000000c0: 4b18 e2b7 9189 bab8 e8e4 3338 781f 5138
000000d0: 6b19 8e38 02e5 74b7 d9a7 c9b8 931d 4936
000000e0: 945f 59b6 9a24 bbb7 834a 1338 dd2c b6b6
000000f0: 1904 5737 7dff b8b7 b361 eb38 047e b3b6
00000100: 36a9 8536 da1c ebb7 f075 8ab8 a66e 1538
00000110: 55ce 17b7 3944 20b8 0312 a9b7 0998 7bb6
00000120: 93b8 edb7 cbc9 9937 5056 b737 579b e6b7
00000130: 24ad 60b7 eb12 9e36 ebd0 9837 3b96 a2b7
00000140: fae2 2a38 8f61 7db7 c1de 2838 4fad 11b8
00000150: 8208 d936 c58f 85b7 43a8 58b7 7d37 6eb6
00000160: 3c53 46b6 5219 39b7 d838 7b35 f519 4ab8
00000170: f8f4 e2b7 0f74 c737 6fba b7b7 161d 87b7
00000180: fd48 4eb8 d38f 94b6 b76d cdb6 8e88 f2b5
00000190: 9edd 07b8 b088 e436 0ddb a236 6b49 c1b5
000001a0: 2d20 2db6 487e 9a35 5ea8 a436 3e2a 0e37
000001b0: f2d6 72b7 2847 9ab7 087f 06b7 5b44 9337
000001c0: 8a92 d0b5 44c3 9937 1d76 8fb5 33be 5d37
000001d0: bc27 56b7 f4f5 96b8 c233 4737 3b20 24b7
000001e0: 01e9 7fb7 f031 c1b6 df4c 9936 a403 05b7
000001f0: 2ff6 84b8 4aa1 ddb6 fd23 3237 8c13 92b8

arith.constant20 f4 [4, 32]
-0.0358924 -0.096614555 0.06996296 0.014045816 -0.10429483 0.04277736 0.14518337 -0.021742491
0.023425328 0.07887403 0.0054592188 -0.109704025 -0.06874673 0.086681925 -0.05297519 -0.09724418
-0.088482186 0.08349456 0.13253571 0.044030692 0.10315328 0.10353727 0.04485391 -0.1077243
0.079422176 -0.05921619 0.028269311 0.07252599 0.01967616 0.07098895 -0.08389674 0.03606693
-0.07027877 -0.15904999 -0.16262099 -0.026877442 0.141475 0.17311236 0.16314904 -0.17574057
0.09640026 0.13750523 0.16466603 -0.053309295 0.063152485 -0.10699336 0.16399495 -0.16589877
0.18404649 0.16264547 -0.177983 -0.06527509 -0.17089488 0.17979573 0.1745054 -0.038606983
0.16453344 -0.028893584 -0.018411642 -0.04766918 -0.17675956 0.025601042 -0.1347984 -0.104187034
0.11709789 -0.15167227 -0.1508388 -0.15027651 -0.14345492 0.029916426 0.083764285 -0.16118921
-0.01371577 0.05089324 -0.07557904 -0.053650994 0.13454999 -0.02210095 -0.020604635 -0.12687758
-0.019221364 0.14693566 0.11338896 -0.14188501 -0.13518871 -0.08651448 0.021509405 -0.073748834
0.079730466 -0.006497183 0.14820784 0.17061728 -0.10624563 0.102558725 -0.13906103 -0.04384141
0.14020774 -0.12264954 -0.05034292 -0.09203183 0.035912078 -0.1160842 0.08249818 -0.03906547
-0.12601979 0.11775107 0.07107231 0.08683596 0.04793942 -0.1009059 -0.035591744 -0.014001319
0.1265296 -0.13366398 0.10690223 -0.0911476 -0.013252619 0.115712404 -0.10394279 -0.11944806
0.058837663 0.047922194 -0.12412416 0.06884579 0.12034842 -0.09382893 -0.011323232 -0.15297633
00000000: e903 13bd dadd c5bd be48 8f3d 6c20 663c
00000010: 8798 d5bd 5037 2f3d f3aa 143e 4f1d b2bc
00000020: 79e6 bf3c b588 a13d 3fe3 b23b 81ac e0bd
00000030: 16cb 8cbd 4b86 b13d 83fc 58bd f527 c7bd
00000040: 2636 b5bd 32ff aa3d 71b7 073e 8759 343d
00000050: 0742 d33d 590b d43d bcb8 373d 8f9e dcbd
00000060: 18a8 a23d ad8c 72bd 0b95 e73c 8288 943d
00000070: e62f a13c a862 913d 0ed2 abbd ebba 133d
00000080: 51ee 8fbd 00de 22be 1e86 26be 152e dcbc
00000090: d3de 103e 5e44 313e 8b10 273e 56f5 33be
000000a0: 806d c53d 2cce 0c3e 369e 283e d95a 5abd
000000b0: 1756 813d 561f dbbd 4bee 273e 5ee1 29be
000000c0: af76 3c3e 898c 263e 2d41 36be f2ae 85bd
000000d0: 11ff 2ebe 5f1c 383e 8bb1 323e 5b22 1ebd
000000e0: 747b 283e 3db2 ecbc 03d4 96bc c240 43bd
000000f0: 7500 35be 47b9 d13c 9708 0abe 0360 d5bd
00000100: 05d1 ef3d fa4f 1bbe 7d75 1abe 16e2 19be
00000110: d9e5 12be 4b13 f53c 9c8c ab3d c90e 25be
00000120: 1cb8 60bc 6e75 503d 2fc9 9abd 25c1 5bbd
00000130: 79c7 093e 0d0d b5bc 0dcb a8bc 32ec 01be
00000140: 1f76 9dbc 4d76 163e 7938 e83d 4e4a 11be
00000150: e96e 0abe 812e b1bd 7e34 b03c a109 97bd
00000160: ba49 a33d 52e6 d4bb ccc3 173e 4cb6 2e3e
00000170: 4f97 d9bd 4f0a d23d 0466 0ebe 0d93 33bd
00000180: 9e92 0f3e af2f fbbd 6134 4ebd 2f7b bcbd
00000190: 8b18 133d 8ebd edbd cef4 a83d 1d03 20bd
000001a0: 550b 01be 7927 f13d 5c8e 913d 0dd7 b13d
000001b0: 205c 443d c1a7 cebd a6c8 11bd ca65 65bc
000001c0: fa90 013e 36df 08be 8eef da3d 98ab babd
000001d0: 8321 59bc a0fa ec3d f5df d4bd 2fa1 f4bd
000001e0: c3ff 703d 104a 443d cf34 febd 06ff 8c3d
000001f0: 3c79 f63d 6229 c0bd 1485 39bc d4a5 1cbe

arith.constant21 f4 [4, 32]
7.5102595e-05 0.023469672 0.031069318 -0.008544001 -0.024004266 -0.013159386 0.045696095 -0.0037370452
-0.005151518 -0.012066217 0.016096676 -0.02226652 -0.005334972 0.027057767 -0.006839727 0.015219199
0.0030886626 -1.824441e-05 0.0076925703 0.009215878 -0.006097237 0.006514689 0.014233142 -0.007563063
0.014473791 -0.02298626 0.010590332 -0.01877656 -0.043707777 0.011774796 0.0015916954 -0.016950425
0.020890128 -0.003143704 -0.013048515 -0.023873774 -0.0094310455 -0.01526668 -0.005215391 -0.0025154543
0.0055397158 0.02453246 -0.00027144988 -0.00022034477 0.01592391 -0.01188593 0.018570604 0.021516759
-0.022831997 -0.012062824 0.019693043 0.029483292 0.04028721 -0.011104382 0.013973959 0.0041752793
-0.013750118 0.02334447 0.027971527 0.0044973013 0.01791656 0.041994352 0.010886567 0.0072516594
0.03528858 -0.028633565 -0.026221666 -0.007865435 0.016753823 0.0037107693 0.019111002 0.0050128573
-0.0038949226 -0.011488003 0.03527121 0.017459484 0.031596728 -0.03662887 0.008167955 0.009950031
-0.00310585 0.002629518 -0.022122126 0.014643088 -0.029368563 0.015828751 0.02842262 0.013038306
-0.020349486 0.010444964 -0.0035575852 -0.015200873 -0.024078056 -0.018505726 0.015737617 0.019398434
0.009950814 0.0018281884 0.025621535 0.007383731 -0.009767838 0.015390027 0.0113151595 -0.00425516
-7.417511e-05 -0.0019351314 -0.000829957 -0.0028886953 0.029062819 0.00037649384 -0.013533513 0.0065039024
0.01814682 -0.015678633 -0.054193098 -0.029439671 -0.0064316816 0.0059634075 -0.009226595 -0.02875411
0.00032315133 -0.055271424 0.011376769 -0.009408339 0.029205604 -0.022210438 -0.029607758 -0.011950701
00000000: 6680 9d38 7843 c03c 1585 fe3c 23fc 0bbc
00000010: 98a4 c4bc 779a 57bc d42b 3b3d 37e9 74bb
00000020: 11ce a8bb 62b1 45bc 2ddd 833c 4768 b6bc
00000030: fdd0 aebb 40a8 dd3c ca1f e0bb f259 793c
00000040: 296b 4a3b 920b 99b7 f511 fc3b 32fe 163c
00000050: 55cb c7bb 2c79 d53b 2032 693c 92d3 f7bb
00000060: 7b23 6d3c ae4d bcbc 1283 2d3c 4dd1 99bc
00000070: ed06 33bd 13eb 403c 6fa0 d03a 9edb 8abc
00000080: c621 ab3c 9a06 4ebb 70c9 55bc ef92 c3bc
00000090: ac84 1abc 1921 7abc dfe5 aabb 52da 24bb
000000a0: 8186 b53b 4cf8 c83c 6351 8eb9 590c 67b9
000000b0: dc72 823c 34bd 42bc 6121 983c ea43 b03c
000000c0: 2b0a bbbc 27a3 45bc 4e53 a13c f286 f13c
000000d0: 3404 253d 27ef 35bc 08f3 643c c8d0 883b
000000e0: 2d48 61bc e73c bf3c 8b24 e53c 195e 933b
000000f0: c0c5 923c 4502 2c3d 925d 323c 549f ed3b
00000100: c28a 103d f090 eabc d2ce d6bc 07de 00bc
00000110: 503f 893c 6130 733b ad8e 9c3c e542 a43b
00000120: f541 7fbb 2d38 3cbc 8b78 103d 3107 8f3c
00000130: 926b 013d 2708 16bd e3d2 053c 7405 233c
00000140: 848b 4bbb fe53 2c3b 7639 b5bc 90e9 6f3c
00000150: 5796 f0bc 4cab 813c 8ed6 e83c 9e9e 553c
00000160: f7b3 a6bc 5b21 2b3c 6026 69bb 150d 79bc
00000170: 583f c5bc 5299 97bc 2dec 803c 77e9 9e3c
00000180: bd08 233c d39f ef3a 41e4 d13c 3af3 f13b
00000190: 4809 20bc 7426 7c3c 3863 393c df6e 8bbb
000001a0: 758e 9bb8 3ca4 fdba 7991 59ba 4450 3dbb
000001b0: 2615 ee3c 2664 c539 abbb 5dbc b01e d53b
000001c0: a4a8 943c 7a70 80bc 95f9 5dbd 772b f1bc
000001d0: dbc0 d2bb b068 c33b 252b 17bc bd8d ebbc
000001e0: a36c a939 4a64 62bd a165 3a3c 6f25 1abc
000001f0: 9740 ef3c aaf2 b5bc f88b f2bc dfcc 43bc

arith.constant22 f4 [64]
7.630259 17.68801 5.6537566 15.069151 3.6463494 23.653625 5.376167 7.521564
14.937322 7.7520614 7.2158246 16.3106 14.667968 23.565598 8.892725 25.877783
9.763766 12.571782 19.14545 11.7947 3.8397703 7.865213 9.698221 12.181559
6.779779 13.2851 10.344035 8.962389 13.52971 8.623775 19.735924 15.584592
8.656367 8.405294 17.853489 10.7752695 8.040574 8.817675 11.384728 13.159383
18.750017 10.429606 7.436574 10.1847515 14.804509 6.814146 22.0672 6.7672844
12.550561 9.980183 12.72018 9.224679 14.459173 6.10314 18.866657 16.135769
6.0290008 12.693625 14.688353 8.507838 7.004869 11.021044 12.782112 18.216583
00000000: 152b f440 0b81 8d41 93eb b440 3e1b 7141
00000010: ca5d 6940 a03a bd41 8f09 ac40 a7b0 f040
00000020: 45ff 6e41 e310 f840 09e8 e640 1c7c 8241
00000030: ffaf 6a41 5886 bc41 9a48 0e41 b305 cf41
00000040: 6338 1c41 0526 4941 e229 9941 17b7 3c41
00000050: ccbe 7540 d3af fb40 ea2b 1b41 aae7 4241
00000060: f3f3 d840 c58f 5441 2b81 2541 f265 0f41
00000070: b179 5841 fbfa 0941 2ce3 9d41 7d5a 7941
00000080: 7b80 0a41 167c 0641 f2d3 8e41 8167 2c41
00000090: 31a6 0041 3215 0d41 d927 3641 d58c 5241
000000a0: 0900 9641 abdf 2641 6af8 ed40 bef4 2241
000000b0: 45df 6c41 7c0d da40 a089 b041 988d d840
000000c0: 19cf 4841 d4ae 1f41 db85 4b41 4998 1341
000000d0: c658 6741 ec4c c340 eaee 9641 0e16 8141
000000e0: 93ed c040 1719 4b41 7e03 6b41 1b20 0841
000000f0: e327 e040 3256 3041 8883 4c41 90bb 9141

arith.constant23 f4 [64]
-0.50365144 -0.28431427 -0.44206154 -0.4196776 -0.4762822 -0.38835368 -0.28976038 -0.39517447
-0.58243215 -0.52488756 -0.36482424 -0.5109498 -0.23834354 -0.3242566 -0.5659795 -0.35873336
-0.46510807 -0.37114272 -0.28739294 -0.5006071 -0.32453978 -0.5088545 -0.36961508 -0.4482995
-0.30381405 -0.46334884 -0.3027487 -0.38742313 -0.4616204 -0.29993054 -0.4767361 -0.5141195
-0.5379057 -0.41864032 -0.1447231 -0.40778133 -0.48178047 -0.5751343 -0.39896962 -0.64260924
-0.5139058 -0.40120697 -0.39456615 -0.41864058 -0.53360736 -0.2774207 -0.1290532 -0.32014054
-0.48462668 -0.56569386 -0.052942745 -0.25594276 -0.3743361 -0.41237783 -0.36396566 -0.44340217
-0.53723407 -0.2803474 -0.5675962 -0.5708151 -0.31812 -0.36685693 -0.7788221 -0.39194298
00000000: 4def 00bf a491 91be e455 e2be fbdf d6be
00000010: 43db f3be 4bd6 c6be 795b 94be 4f54 cabe
00000020: 461a 15bf 085f 06bf 3eca babe 9bcd 02bf
00000030: 5410 74be f604 a6be 08e4 10bf e6ab b7be
00000040: a522 eebe 6b06 bebe 2b25 93be c927 00bf
00000050: 142a a6be 4a44 02bf 303e bdbe 8387 e5be
00000060: 848d 9bbe 0f3c edbe e101 9bbe 535c c6be
00000070: 8259 ecbe 7f90 99be c116 f4be 569d 03bf
00000080: 30b4 09bf 0658 d6be 4b32 14be b7c8 d0be
00000090: eeab f6be 003c 13bf bf45 ccbe 0a82 24bf
000000a0: 558f 03bf 006b cdbe 9304 cabe 0f58 d6be
000000b0: 7e9a 08bf 160a 8ebe 8626 04be 76e9 a3be
000000c0: fd20 f8be 50d1 10bf 7eda 58bd ee0a 83be
000000d0: fba8 bfbe 3023 d3be b559 babe 9c05 e3be
000000e0: 2c88 09bf b289 8fbe fc4d 11bf f020 12bf
000000f0: a0e0 a2be acd4 bbbe e360 47bf c0ac c8be

arith.constant24 f4 [64]
9.534812 9.516663 6.601542 7.7359138 8.195591 10.345393 5.8167734 10.96939
14.699192 9.917815 8.132372 3.5561867 5.8270006 5.084338 11.042555 7.529392
17.256586 6.0088377 2.6333706 4.5785203 9.850285 10.113248 8.326372 6.3408623
5.421366 7.0725746 10.865632 3.6606135 3.9461455 6.6227226 5.4774604 9.24817
6.304901 3.936217 6.5063457 3.9613907 7.509811 5.2939935 5.565157 4.322414
8.791822 4.8656373 9.790674 17.121424 3.611394 6.009804 12.904403 21.091297
19.147133 20.11627 6.2359805 8.081237 8.93538 9.835148 10.135907 14.309222
5.621587 9.327519 6.014303 8.541869 7.2990055 9.516162 19.885181 10.349282
00000000: 978e 1841 4044 1841 d53f d340 9b8c f740
00000010: 2421 0341 bb86 2541 0223 ba40 9f82 2f41
00000020: e42f 6b41 5faf 1e41 321e 0241 9098 6340
00000030: ca76 ba40 e6b2 a240 4eae 3041 c7f0 f040
00000040: 7d0d 8a41 6648 c040 2589 2840 3d83 9240
00000050: c49a 1d41 ddcf 2141 d238 0541 58e8 ca40
00000060: d57b ad40 8852 e240 a1d9 2d41 7e47 6a40
00000070: a68d 7c40 58ed d340 5b47 af40 81f8 1341
00000080: c0c1 c940 fbea 7b40 fc33 d040 6d87 7d40
00000090: 5f50 f040 6568 a940 c415 b240 3751 8a40
000000a0: 4eab 0c41 4db3 9b40 9aa6 1c41 adf8 8841
000000b0: 1421 6740 5050 c040 6f78 4e41 faba a841
000000c0: 542d 9941 1fee a041 278d c740 bf4c 0141
000000d0: 51f7 0e41 c45c 1d41 ad2c 2241 93f2 6441
000000e0: 0ae4 b340 853d 1541 2c75 c040 7fab 0841
000000f0: 7491 e940 3342 1841 da14 9f41 a996 2541

arith.constant25 f4 [64]
-0.42436934 -0.5419325 -0.25824505 -0.33819652 -0.32385647 -0.26601556 -0.54027885 -0.27612153
-0.3996491 -0.45274585 -0.47070852 -0.47818395 -0.40922377 -0.2509098 -0.2826705 -0.3571365
-0.43185157 -0.26652697 -0.28249174 -0.2574123 -0.49865443 -0.3504578 -0.39558366 -0.30977413
-0.26345223 -0.424254 -0.422005 -0.47466177 -0.41121474 -0.44201845 -0.39792663 -0.45117092
-0.47506216 -0.17760924 -0.24393883 -0.3274107 -0.26494646 -0.21408185 -0.7155576 -0.5356024
-0.2842622 -0.49933606 -0.38568616 -0.34556398 -0.28787142 -0.31362456 -0.1666863 -0.21288924
-0.42103747 -0.24656588 -0.46287498 -0.26956415 -0.504147 -0.48233974 -0.3616004 -0.4487711
-0.54919624 -0.5284613 -0.40281785 -0.48918632 -0.35419232 -0.31447858 -0.49656382 -0.42895797
00000000: f046 d9be 17bc 0abf b238 84be 1828 adbe
00000010: 84d0 a5be 3133 88be b74f 0abf cd5f 8dbe
00000020: cf9e ccbe 4ece e7be b500 f1be 87d4 f4be
00000030: c785 d1be 4077 80be 30ba 90be 98da b6be
00000040: a61b ddbe 3976 88be c2a2 90be 8ccb 83be
00000050: a24f ffbe 346f b3be f189 cabe b79a 9ebe
00000060: 36e3 86be d237 d9be 0a11 d8be de06 f3be
00000070: bd8a d2be 3e50 e2be 0abd cbbe e0ff e6be
00000080: 593b f3be 32df 35be 1acb 79be 60a2 a7be
00000090: 10a7 87be 4638 5bbe c82e 37bf 3d1d 09bf
000000a0: d18a 91be faa8 ffbe a878 c5be c3ed b0be
000000b0: e263 93be 6693 a0be d0af 2abe a3ff 59be
000000c0: 3992 d7be c47b 7cbe f3fd ecbe 5004 8abe
000000d0: c70f 01bf 3cf5 f6be b023 b9be 53c5 e5be
000000e0: 2098 0cbf 3d49 07bf 243e cebe a176 fabe
000000f0: b258 b5be 5603 a1be 9d3d febe 61a0 dbbe

arith.constant26 f4 [64]
7.8392653 16.004799 4.8672166 3.4464927 3.9567163 4.9976683 11.541677 6.909746
13.134082 4.909529 9.046985 4.954294 4.7493596 7.3356013 16.126476 6.5674257
7.3098946 6.12991 15.579734 5.217584 3.2732568 12.856302 8.370581 2.0458992
12.097506 7.016936 6.022638 4.03836 3.3421202 9.599235 4.563224 5.317331
5.563897 5.5897613 12.164085 4.9781537 5.8796554 6.3455048 5.3436594 5.940133
3.222108 13.578277 8.052864 4.8526516 5.141336 5.113984 4.894381 4.7713747
3.4492629 8.234054 5.9811034 4.1652436 5.675274 4.63034 8.871585 4.336267
6.8303585 4.1834803 4.3215795 4.358649 4.849483 4.6914787 6.3773255 4.5488605
00000000: 43db fa40 d409 8041 3dc0 9b40 5693 5c40
00000010: d73a 7d40 e6ec 9f40 b6aa 3841 a41c dd40
00000020: 3325 5241 dd1a 9d40 73c0 1041 9489 9e40
00000030: c1fa 9740 3fbd ea40 0603 8141 5a28 d240
00000040: a8ea e940 3928 c440 9746 7941 73f6 a640
00000050: 0a7d 5140 6ab3 4d41 e6ed 0541 03f0 0240
00000060: 628f 4141 bd8a e040 73b9 c040 3f3a 8140
00000070: 4ce5 5540 7796 1941 ee05 9240 9327 aa40
00000080: 720b b240 53df b240 18a0 4241 094d 9f40
00000090: 2326 bc40 600e cb40 42ff aa40 9215 be40
000000a0: 0437 4e40 9f40 5941 88d8 0041 ec48 9b40
000000b0: d385 a440 c2a5 a340 c59e 9c40 1aaf 9840
000000c0: b9c0 5c40 afbe 0341 3365 bf40 ad49 8540
000000d0: d89b b540 bf2b 9440 03f2 0d41 b3c2 8a40
000000e0: 4c92 da40 12df 8540 614a 8a40 0d7a 8b40
000000f0: f72e 9b40 9820 9640 0d13 cc40 4490 9140

arith.constant27 f4 [64]
-0.5072673 -0.40971208 -0.5400088 -0.362127 -0.48283824 -0.28702235 -0.51426905 -0.38349125
-0.2388434 -0.21103634 -0.5066747 -0.38724497 -0.44724432 -0.4630029 -0.35910168 -0.39406428
-0.41755506 -0.651388 -0.4148322 -0.46071738 -0.28193498 -0.31094262 -0.2181068 -0.3678227
-0.35934258 -0.36395282 -0.3823997 -0.49374938 -0.48285788 -0.40211535 -0.4242206 -0.5144327
-0.4786539 -0.4054266 -0.4017837 -0.57090586 -0.25565302 -0.40525755 -0.44460887 -0.45314643
-0.33152512 -0.42430067 -0.35970426 -0.47039652 -0.32101434 -0.72555065 -0.29153803 -0.34117427
-0.28925464 -0.36192554 -0.56060547 -0.2946932 -0.43757838 -0.33519563 -0.15105774 -0.3385223
-0.37629792 -0.3961532 -0.46907791 -0.36685324 -0.292418 -0.3310003 -0.31583613 -0.2931256
00000000: 45dc 01bf c8c5 d1be 043e 0abf b668 b9be
00000010: 9336 f7be 98f4 92be 23a7 03bf f758 c4be
00000020: 5d93 74be e919 58be 6fb5 01bf f944 c6be
00000030: 35fd e4be b70e edbe 2ddc b7be cbc2 c9be
00000040: c7c9 d5be 5dc1 26bf e364 d4be 26e3 ebbe
00000050: c859 90be df33 9fbe 6457 5fbe 4253 bcbe
00000060: c0fb b7be 0658 babe e5c9 c3be b8cc fcbe
00000070: 2639 f7be 10e2 cdbe 7133 d9be ddb1 03bf
00000080: 2012 f5be 1394 cfbe 98b6 cdbe e326 12bf
00000090: f4e4 82be eb7d cfbe c6a3 e3be cf02 e8be
000000a0: a9bd a9be f03d d9be 282b b8be d0d7 f0be
000000b0: fe5b a4be b0bd 39bf 7944 95be 65ae aebe
000000c0: 2f19 94be 4e4e b9be d783 0fbf 07e2 96be
000000d0: 460a e0be c39e abbe e1ae 1abe cb52 adbe
000000e0: 1faa c0be 98d4 cabe fb2a f0be 30d4 bbbe
000000f0: d0b7 95be df78 a9be 46b5 a1be 8f14 96be

arith.constant28 f4 [1, 1, 256]
0.03492898 0.0059474763 0.033521038 0.0096746115 -0.0015207378 -0.021715097 0.0045827776 0.0042978805
-0.00911996 -0.03425257 -0.001055404 0.021368055 -0.015938515 0.028073 0.015608504 0.03838682
-0.016030554 0.024223076 -0.0058432263 -0.024384867 -0.033503376 0.016644608 0.014139035 0.020564726
0.024932254 0.013282615 0.0091436785 -0.008861802 0.07360046 0.00059042487 0.050024707 3.7546695e-05
0.055406105 -0.00471267 -0.0041271886 -0.021903269 -0.013998458 -0.0034563674 0.029253358 -0.0035997112
-0.0022441654 -0.0026154232 0.011453286 -0.016922247 0.023795262 0.009885364 0.006409603 -0.013208904
0.017699486 -0.0010645923 0.012082429 -0.004002015 0.017377064 -0.014987629 -0.018280683 -0.031573564
-0.015614584 0.027686575 -0.013563003 0.008838463 0.016870873 -0.004180849 -0.0026439815 0.015167381
0.004983476 -0.005217333 -0.015828224 0.029460952 0.01766937 -0.018469097 0.00058289117 -0.0108983135
-0.037722148 -0.020282086 0.013700024 -0.02046259 -0.002135548 0.018707626 0.026084272 0.028840633
0.02711866 0.01881889 0.04015171 -0.0051790103 0.010740966 0.016774558 0.0072194207 -0.0017394567
0.02830936 -0.016032018 -0.005807851 0.0023477639 -0.016695257 0.005152237 -0.02173457 -0.0054399474
0.010389561 0.010593607 0.0018845397 0.0029907655 0.0059617274 0.023788221 -0.024115112 -0.021212786
-0.016797999 -0.014863859 -0.03157018 0.017258223 0.005656439 0.0064129597 -0.00318556 -0.023065057
0.0040210485 0.0062493505 0.014514057 -0.025307136 -0.0017082175 -0.01946508 0.001194144 -0.012273977
-0.043019865 0.026967194 0.012225877 0.0067341384 0.017057985 -0.02461262 0.016910786 0.014286312
0.022722047 0.03257106 0.031994313 -0.045894936 -0.0048191487 0.016288608 -0.015667506 -0.011872431
-0.012645529 0.0064010355 0.016839331 0.020525321 0.029918812 0.00413252 -0.010588489 -0.008513389
-0.004650785 0.030704986 0.014847962 -0.0075261393 0.0017264885 -0.016901515 -0.007780304 0.022952288
-0.0050115655 0.009693005 -0.01019563 -0.0011778174 -0.004174357 -0.027356334 0.016541587 -0.04022734
0.015479399 0.0053581554 0.012462855 0.0033797096 -0.010300137 -0.0032957427 0.040279068 -0.055557333
-0.050916076 -0.0074812393 -0.04197162 0.011691894 -0.0183175 -0.009844609 0.013500517 -0.0029032833
-0.0034445995 0.015197359 0.003378202 0.010794965 0.029177928 0.022010455 -0.014085011 0.022558691
-0.0136917485 -0.007770395 0.015309535 -0.004006269 -0.017504908 0.004927941 0.034312658 -0.0041470234
0.011721382 0.01763815 -0.0017355696 0.023588555 0.006130321 0.013146806 -0.0184425 -0.001580359
-0.011870721 -0.0023729587 -0.016030658 0.010510545 0.024572466 -0.018407764 -0.017482359 0.01988867
-0.0020997175 0.0136038745 -0.030387022 -0.014778293 -0.019904029 0.013355483 0.018921832 0.017727232
0.026904551 0.020102859 0.004690522 0.040084347 -0.02169227 -0.010280821 0.013358556 -0.004380968
-0.011775114 0.0019055387 -0.006508887 0.0024878685 -0.011258369 -0.0010138722 -0.029299341 0.021220218
0.020966627 0.0022321413 0.028513305 -0.010474756 -0.033893973 0.026250899 -0.010983193 0.021264093
0.00071317074 0.0045747757 -0.00567803 -0.01947657 0.031983208 -0.017502159 -0.031166244 0.001982875
0.009691418 -0.023708098 -0.015824635 0.0020895128 0.025324197 -0.0131002925 0.031477436 -0.010789483
00000000: b111 0f3d 0ce3 c23b 5b4d 093d 4382 1e3c
00000010: 7e53 c7ba dce3 b1bc 202b 963b 3cd5 8c3b
00000020: e26b 15bc 6c4c 0cbd 7b55 8aba 0f0c af3c
00000030: 7d91 82bc 59f9 e53c d0ba 7f3c 803b 1d3d
00000040: 8252 83bc 796f c63c 8978 bfbb c6c2 c7bc
00000050: d63a 09bd 465a 883c 69a7 673c 5b77 a83c
00000060: ba3e cc3c 539f 593c 5ecf 153c 1731 11bc
00000070: d7bb 963d bec6 1a3a b5e6 4c3d 757b 1d38
00000080: 83f1 623d be6c 9abb 5e3d 87bb 7c6e b3bc
00000090: ca59 65bc 3984 62bb bda4 ef3c 22e9 6bbb
000000a0: d912 13bb 8567 2bbb 90a6 3b3c 86a0 8abc
000000b0: 48ee c23c 39f6 213c a607 d23b 296a 58bc
000000c0: 83fe 903c ca89 8bba 61f5 453c 5623 83bb
000000d0: 585a 8e3c ac8e 75bc 5fc1 95bc 4853 01bd
000000e0: 50d4 7fbc f5ce e23c 5c37 5ebc 33cf 103c
000000f0: c934 8a3c 81ff 88bb a646 2dbb 9b80 783c
00000100: 6d4c a33b 29f6 aabb 31aa 81bc 1858 f13c
00000110: 5bbf 903c 814c 97bc 2acd 183a d78e 32bc
00000120: 8a82 1abd 9e26 a6bc 1176 603c 29a1 a7bc
00000130: 8df4 0bbb bc40 993c afae d53c 3143 ec3c
00000140: f427 de3c 132a 9a3c 1f76 243d b0b4 a9bb
00000150: e0fa 2f3c cc6a 893c e490 ec3b 7bfe e3ba
00000160: 08e9 e73c 9455 83bc c94f bebb f1dc 193b
00000170: 7ec4 88bc 19d4 a83b b20c b2bc 9641 b2bb
00000180: fa38 2a3c cf90 2d3c a902 f73a b800 443b
00000190: 985a c33b 84df c23c 0e8d c5bc 70c6 adbc
000001a0: f59b 89bc 8b87 73bc bc4f 01bd 1e61 8d3c
000001b0: a659 b93b ce23 d23b d4c4 50bb eef2 bcbc
000001c0: 00c3 833b 5ac7 cc3b 5ecc 6d3c e950 cfbc
000001d0: 45e6 dfba 3b75 9fbc d384 9c3a ca18 49bc
000001e0: 9935 30bd 4eea dc3c 0b4f 483c 0caa dc3b
000001f0: 30bd 8b3c 68a0 c9bc 7d88 8a3c 2311 6a3c
00000200: 9623 ba3c 3b69 053d 780c 033d 54fc 3bbd
00000210: f3e9 9dbb b06f 853c 2459 80bc 9684 42bc
00000220: 312f 4fbc c7bf d13b a3f2 893c b824 a83c
00000230: 4c18 f53c 176a 873b 577b 2dbc be7b 0bbc
00000240: 9d65 98bb 0689 fb3c de44 733c d59d f6bb
00000250: 574b e23a 0c75 8abc ecf1 febb 7006 bc3c
00000260: 0f38 a4bb 69cf 1e3c 920b 27bc fe60 9aba
00000270: 0bc9 88bb 641a e0bc 3982 873c 6cc5 24bd
00000280: 4e9d 7d3c 7793 af3b 0131 4c3c 1e7e 5d3b
00000290: e8c1 28bc 63fd 57bb aafb 243d 1690 63bd
000002a0: 608d 50bd 2f25 f5bb 6fea 2bbd 5c8f 3f3c
000002b0: 950e 96bc 484b 21bc 4631 5d3c 0345 3ebb
000002c0: cabe 61bb 58fe 783c d364 5d3b 5ddd 303c
000002d0: 8d06 ef3c 454f b43c d1c4 66bc 01cd b83c
000002e0: 5b53 60bc cc9e febb d8d4 7a3c 0547 83bb
000002f0: 7466 8fbc 917a a13b 6e8b 0c3d c1e3 87bb
00000300: 0a0b 403c e27d 903c 0d7c e3ba c93c c13c
00000310: dce0 c83b b365 573c ba14 97bc 0c24 cfba
00000320: 6a7d 42bc a483 1bbb ba52 83bc 6c34 2c3c
00000330: 324c c93c e1cb 96bc 2a37 8fbc 90ed a23c
00000340: 6a9b 09bb c9e2 5e3c 34ee f8bc a720 72bc
00000350: c60d a3bc f5d0 5a3c f501 9b3c b338 913c
00000360: ef66 dc3c c0ae a43c f3b2 993b 7c2f 243d
00000370: fdb3 b1bc e370 28bc d8dd 5a3c 398e 8fbb
00000380: 68ec 40bc 45c3 f93a 8048 d5bb 820b 233b
00000390: 0675 38bc e8e3 84ba 2c05 f0bc 06d6 ad3c
000003a0: 34c2 ab3c 1e49 123b bc94 e93c 509e 2bbc
000003b0: 68d4 0abd 200c d73c daf2 33bc 0932 ae3c
000003c0: 14f4 3a3a 00e8 953b c50e babb 548d 9fbc
000003d0: d300 033d b060 8fbc 5a50 ffbc 1ff3 013b
000003e0: c1c8 1e3c 7c37 c2bc aaa2 81bc 35f0 083b
000003f0: b174 cf3c 9ca2 56bc 7cee 003d 5fc6 30bc

arith.constant29 f4 [1, 1, 256]
0.99815506 0.96322656 1.0081944 0.96130496 1.0125797 1.0179387 1.0136783 1.0109247
0.99672526 0.96180665 1.0034814 1.0363177 0.9778913 1.0086654 1.0004388 0.9927404
0.97528726 1.0054276 1.016758 0.98732567 1.0056534 1.0251472 1.0011277 0.9717357
1.0008823 0.97379863 0.9790965 1.0103906 0.9910854 0.97679806 1.0193573 1.0179031
1.0478195 0.98385686 1.0491874 1.0282217 0.99965507 0.99765855 1.0215453 1.0263073
1.0435444 0.98940843 1.0087036 1.0334877 0.9675762 0.95502484 1.0016298 0.9731018
1.0071576 0.9640645 0.9777437 0.9951481 1.0084064 0.9872728 0.978475 0.966867
0.9544932 0.9824091 0.98571235 1.0130849 1.0459926 0.9781279 0.96506786 1.0267016
0.9854989 0.9851319 0.9812883 0.9980484 0.93943554 1.0222926 1.0218472 0.973538
0.98519343 0.99292046 0.94728696 0.9917979 0.97362685 1.0238866 0.9625493 0.96139514
0.99226564 1.0197121 0.9997359 1.0287145 0.98672104 0.9672129 0.9913426 0.99884796
0.9663467 0.9846921 1.0313425 1.0000691 0.986197 1.0038725 1.0088383 0.9555285
0.9573268 0.93984526 0.938296 1.0142181 1.0130141 1.026714 1.0320665 1.0312928
0.99169743 0.9896404 0.9630892 0.9606877 1.0018299 0.9627348 1.047779 0.97790635
0.9824321 0.97432804 0.97892797 0.9698024 0.96100163 0.9475559 1.0082198 1.0028696
1.0075076 0.97206855 1.0203663 0.99022174 1.0051082 1.0403404 0.9631164 0.9800237
0.9808872 0.9787353 0.97173226 1.0355996 0.9688413 1.0324401 1.0091885 0.98142105
1.0285752 1.026193 0.99650127 0.99965 1.0266645 1.009358 1.0268525 1.0428271
0.97861135 0.9873638 1.0104591 1.0008618 1.0566332 0.9835968 0.992799 1.0441443
0.98188776 1.031324 0.9697477 0.9704915 1.0305288 1.0055406 1.027746 0.9903102
0.97197163 0.9550744 1.0542983 1.0151402 1.0135772 1.0013729 0.9799734 0.99349123
0.9953919 1.0427157 1.027178 0.9877114 0.9848303 1.0256864 1.0630064 0.975253
0.9969771 0.96322995 0.9787843 1.0213089 1.0235043 1.0210043 0.94809854 1.0036552
1.0108916 1.0331854 0.985202 1.0426171 1.0295432 1.0009657 1.0043446 1.0173129
0.97341985 0.99628854 0.9827774 0.9955703 1.015824 1.004079 1.0457487 1.0387543
1.0170082 1.011215 1.0157119 1.0123998 0.98400927 0.96353674 1.0299208 0.9904144
1.0075125 1.0110294 1.0696231 0.9635097 0.98139864 0.98584664 1.0252514 0.9954059
0.97796625 0.9583208 1.0497912 0.9621074 0.9965333 0.9545305 1.0447779 0.9620116
0.9940531 0.9922675 1.0464236 0.9910876 0.98583066 0.95419943 1.0492567 0.95585036
1.0119444 1.0177873 1.0436604 1.0113697 1.0253296 0.99592125 1.0085347 1.0023407
1.0088884 1.0268067 1.0059836 1.0114195 0.9987292 0.9914554 1.0071034 1.011869
0.943386 1.0068756 0.9822265 1.0169824 0.980322 1.0248052 1.0166577 0.943885
00000000: 1787 7f3f 0496 763f 840c 813f 1518 763f
00000010: 369c 813f d14b 823f 36c0 813f fb65 813f
00000020: 6329 7f3f f638 763f 1472 803f 0fa6 843f
00000030: 1657 7a3f f31b 813f 610e 803f 3c24 7e3f
00000040: 6dac 793f dab1 803f 2025 823f 60c1 7c3f
00000050: 40b9 803f 0638 833f f424 803f acc3 783f
00000060: e91c 803f de4a 793f 11a6 7a3f 7b54 813f
00000070: c6b7 7d3f 700f 7a3f 4d7a 823f a64a 823f
00000080: f31e 863f 0bde 7b3f c64b 863f c59c 833f
00000090: 65e9 7f3f 8d66 7f3f ffc1 823f 0a5e 833f
000000a0: dd92 853f df49 7d3f 331d 813f 5349 843f
000000b0: 13b3 773f 827c 743f 6835 803f 331d 793f
000000c0: 8aea 803f eecc 763f 694d 7a3f 07c2 7e3f
000000d0: 7613 813f e9bd 7c3f 567d 7a3f 9984 773f
000000e0: ab59 743f 2a7f 7b3f a557 7c3f c4ac 813f
000000f0: 16e3 853f 9766 7a3f b00e 773f f56a 833f
00000100: a849 7c3f 9b31 7c3f b635 7b3f 1a80 7f3f
00000110: d97e 703f 7cda 823f e4cb 823f c939 793f
00000120: a335 7c3f 0930 7e3f 6681 723f 78e6 7d3f
00000130: 9c3f 793f b70e 833f a269 763f fe1d 763f
00000140: 1f05 7e3f ed85 823f b1ee 7f3f ebac 833f
00000150: c099 7c3f 449b 773f a1c8 7d3f 80b4 7f3f
00000160: 7f62 773f c814 7c3f 0803 843f 4402 803f
00000170: 6877 7c3f e57e 803f 9d21 813f 849d 743f
00000180: 5f13 753f b399 703f 2b34 703f e6d1 813f
00000190: 72aa 813f 5d6b 833f c11a 843f 6701 843f
000001a0: e2df 7d3f 1359 7d3f 048d 763f a1ef 753f
000001b0: f63b 803f ca75 763f 9f1d 863f 1258 7a3f
000001c0: ac80 7b3f 906d 793f 069b 7a3f f844 783f
000001d0: 3404 763f 0693 723f 590d 813f 085e 803f
000001e0: 02f6 803f 7cd9 783f 5d9b 823f 2c7f 7d3f
000001f0: 63a7 803f e029 853f cc8e 763f d5e2 7a3f
00000200: 6c1b 7b3f 668e 7a3f 72c3 783f 878e 843f
00000210: fc05 783f ff26 843f 172d 813f 693e 7b3f
00000220: 5aa8 833f 4b5a 833f b51a 7f3f 10e9 7f3f
00000230: be69 833f a532 813f e76f 833f 5c7b 853f
00000240: 4686 7a3f e0c3 7c3f b956 813f 3d1c 803f
00000250: c23f 873f 00cd 7b3f 1328 7e3f 85a6 853f
00000260: ff5c 7b3f 6d02 843f 6341 783f 2272 783f
00000270: 5ee8 833f 8eb5 803f 2e8d 833f f884 7d3f
00000280: 22d3 783f c27f 743f 3ff3 863f 1df0 813f
00000290: e6bc 813f fd2c 803f 89df 7a3f 7155 7e3f
000002a0: 01d2 7e3f b577 853f 927a 833f a8da 7c3f
000002b0: d71d 7c3f b149 833f 9810 883f 2eaa 793f
000002c0: e439 7f3f 3d96 763f 9c91 7a3f 40ba 823f
000002d0: 3002 833f 45b0 823f 96b6 723f c677 803f
000002e0: e564 813f 6b3f 843f 3336 7c3f 7a74 853f
000002f0: 12c8 833f a51f 803f 5d8e 803f 4f37 823f
00000300: 0b32 793f c40c 7f3f 4d97 7b3f b2dd 7e3f
00000310: 8506 823f a985 803f 18db 853f e7f5 843f
00000320: 532d 823f 7e6f 813f d902 823f 5196 813f
00000330: 08e8 7b3f 58aa 763f 72d4 833f cc8b 7d3f
00000340: 2bf6 803f 6969 813f 69e9 883f 92a8 763f
00000350: f13c 7b3f 7260 7c3f 703b 833f ecd2 7e3f
00000360: ff5b 7a3f 8354 753f 8f5f 863f ac4c 763f
00000370: ce1c 7f3f 1c5c 743f 48bb 853f 6446 763f
00000380: 447a 7e3f 3e05 7e3f 35f1 853f ebb7 7d3f
00000390: 665f 7c3f 6a46 743f 0b4e 863f 9cb2 743f
000003a0: 6587 813f db46 823f aa96 853f 9074 813f
000003b0: 003e 833f b2f4 7e3f aa17 813f b34c 803f
000003c0: 4123 813f 676e 833f 12c4 803f 3276 813f
000003d0: b8ac 7f3f 05d0 7d3f c4e8 803f ec84 813f
000003e0: bf81 713f 4de1 803f 3273 7b3f 7b2c 823f
000003f0: 62f6 7a3f d12c 833f d721 823f 73a2 713f

arith.constant30 f4 [1, 1, 128]
-0.008561404 -0.0013655212 0.020537239 0.025593765 0.018083371 0.0073036845 0.027039602 0.035965566
0.0013169638 -0.022520708 0.009967241 -0.0010509898 -0.027574027 0.029061522 0.02437929 -0.04704307
-0.014828183 0.025121992 -0.03093801 -0.0074762017 0.012297056 0.02815356 0.0076980605 -0.042785108
0.0012650394 0.03877431 -0.0010816369 -0.018145675 0.025350785 0.038469847 -0.020678492 0.005357618
-0.007896067 0.009982612 -4.8063637e-05 0.028032292 0.008435796 0.008983073 -0.008747182 -0.029053485
-0.043174274 0.039164755 0.009922891 -0.011155068 -0.04270162 0.015862457 0.024659818 -0.019246547
0.034715675 -0.021120932 0.002984088 -0.0020097226 0.02694255 0.00015753089 -0.024891976 0.0016685023
-0.015705574 -0.005126479 0.0036449167 0.002339411 0.011706811 -0.024064086 0.043876126 -0.032137763
-0.013811297 0.027889967 -0.048417654 -0.0032531186 -0.022830548 0.025711661 -0.0005674783 0.033857223
-0.022879008 0.016510779 -0.012002112 0.016106969 0.01733034 0.009003515 -0.008765589 -0.0062920274
-0.014975192 -0.017566232 0.0033234695 0.006017334 0.0042705685 -0.062796526 0.00033941417 -0.01652222
0.024074687 -0.008631319 0.008982769 -0.0003741508 0.00037634856 -0.02598485 -0.01131034 0.0062594516
-0.022571305 -0.04056096 0.020544644 0.018431818 0.007209823 -0.01308594 -0.0017371137 0.019590613
-0.016418297 0.012108727 0.030575186 -0.012546971 0.028204648 0.02150288 -0.023845859 -0.0112252375
0.026971621 0.026361208 0.010662957 -0.0051658996 -0.002597225 -0.042125665 -0.0017340599 0.030607974
0.0038194617 0.014303741 -0.009669669 -0.020233313 0.014882848 -0.0006491818 0.018790828 0.044179447
00000000: 2245 0cbc 4afb b2ba b63d a83c 04aa d13c
00000010: 9423 943c bf53 ef3b 2882 dd3c a150 133d
00000020: f99d ac3a 597d b8bc a44d 233c 5ec1 89ba
00000030: ede2 e1bc 6e12 ee3c 14b7 c73c 3cb0 40bd
00000040: e8f1 72bc a3cc cd3c b671 fdbc edfa f4bb
00000050: 9779 493c 4ba2 e63c 0340 fc3b 703f 2fbd
00000060: aecf a53a d0d1 1e3d b6c5 8dba 3da6 94bc
00000070: 73ac cf3c 8f92 1d3d f165 a9bc f58e af3b
00000080: 815e 01bc 1c8e 233c f097 49b8 faa3 e53c
00000090: 4b36 0a3c bd2d 133c 5750 0fbc 9301 eebc
000000a0: 82d7 30bd 396b 203d 9f93 223c bfc3 36bc
000000b0: e5e7 2ebd fcf1 813c 6303 ca3c efaa 9dbc
000000c0: 0632 0e3d ce05 adbc b090 433b 8db5 03bb
000000d0: 9fb6 dc3c e02e 2539 42ea cbbc a6b1 da3a
000000e0: faa8 80bc 06fc a7bb 8edf 6e3b ce50 193b
000000f0: edcd 3f3c 0c22 c5bc 74b7 333d e3a2 03bd
00000100: c748 62bc 8079 e43c 9751 46bd 4632 55bb
00000110: 2107 bbbc 43a1 d23c d3c2 14ba dfad 0a3d
00000120: c26c bbbc 9d41 873c 82a4 44bc c3f2 833c
00000130: 5bf8 8d3c 7b83 133c 8c9d 0fbc 5a2d cebb
00000140: 825a 75bc 0fe7 8fbc 91ce 593b 0e2d c53b
00000150: 20f0 8b3b 779b 80bd 66f3 b139 9b59 87bc
00000160: 4738 c53c 606a 0dbc 772c 133c ac29 c4b9
00000170: a650 c539 2ede d4bc 014f 39bc 161c cd3b
00000180: 75e7 b8bc 4023 26bd 3e4d a83c 53fe 963c
00000190: 6140 ec3b 6966 56bc ddaf e3ba 7e7c a03c
000001a0: aa7f 86bc af63 463c d078 fa3c d091 4dbc
000001b0: 6f0d e73c cf26 b03c 6458 c3bc 0fea 37bc
000001c0: 97f3 dc3c 76f3 d73c afb3 2e3c b546 a9bb
000001d0: 3436 2abb f68b 2cbd 6549 e3ba 93bd fa3c
000001e0: ef4f 7a3b 3d5a 6a3c 886d 1ebc 55c0 a5bc
000001f0: 30d7 733c da2d 2aba 39ef 993c 82f5 343d

arith.constant31 f4 [1, 1, 128]
1.0250664 1.0094438 0.98574007 0.9765897 0.9753347 1.0387144 0.9936197 0.99223846
1.0083871 1.0282073 1.0050448 1.0479734 1.021608 1.0164318 1.0047 0.9827087
0.9843277 0.97511965 1.0094484 0.98691225 0.98364073 1.0263244 1.0094434 1.0039096
1.0082097 1.0004015 0.9989112 1.0571374 0.99414814 1.0272833 1.0457019 1.0167059
1.0237792 0.9997251 1.0095389 0.9857224 0.9876329 1.0363672 0.9926836 1.0177528
1.0479568 1.0228426 1.0307823 1.0523639 1.0534863 1.0022416 0.9677903 1.0023633
1.0003994 0.9562509 1.0122524 1.0384324 0.96810544 1.0045322 1.0055919 1.0021724
1.0426787 0.9731881 0.99900115 1.0035871 1.0550246 1.0012279 0.99640894 0.9919459
1.0096526 1.0225738 1.0295527 0.9791633 0.98320544 1.0098515 1.0014291 1.0422133
1.0411507 1.0371542 1.0335542 1.0158453 1.0182061 1.0154023 1.0444489 0.9927417
0.9881443 1.0258502 0.9992481 0.98209065 1.0203844 1.0092136 1.0121251 1.0238845
0.9994032 1.042822 1.0101987 0.9977354 1.0033354 0.9905245 1.0311929 1.0434752
1.0143447 1.038155 1.0042632 0.9964141 1.0561566 1.0202978 1.0140079 0.9898869
1.0241735 1.0326036 0.9580771 0.9816708 0.9985289 0.9782807 0.99621964 0.99188036
0.97267294 0.98714477 1.015196 1.0398644 1.0167853 1.0387154 1.0011036 0.99014974
1.0345242 1.0376908 0.9923721 0.99382186 1.0151467 0.99205106 1.03795 1.0077549
00000000: 6035 833f 7435 813f 7659 7c3f c801 7a3f
00000010: 89af 793f 98f4 843f dc5d 7e3f 5703 7e3f
00000020: d412 813f 4c9c 833f 4fa5 803f fe23 863f
00000030: 0dc4 823f 701a 823f 029a 803f cc92 7b3f
00000040: e6fc 7b3f 71a1 793f 9b35 813f 48a6 7c3f
00000050: e1cf 7b3f 995e 833f 7135 813f 1c80 803f
00000060: 040d 813f 280d 803f a5b8 7f3f 4750 873f
00000070: 7e80 7e3f 057e 833f 8fd9 853f 6b23 823f
00000080: 320b 833f fced 7f3f 9238 813f 4e58 7c3f
00000090: 82d5 7c3f aea7 843f 8320 7e3f b945 823f
000000a0: 7323 863f 82ec 823f adf0 833f dcb3 863f
000000b0: a4d8 863f 7449 803f 1bc1 773f 714d 803f
000000c0: 160d 803f dccc 743f 7d91 813f 5aeb 843f
000000d0: c2d5 773f 8394 803f 3cb7 803f 2f47 803f
000000e0: 7f76 853f db22 793f 8abe 7f3f 8b75 803f
000000f0: 0c0b 873f 3c28 803f a814 7f3f 2bf0 7d3f
00000100: 4c3c 813f b3e3 823f 62c8 833f 72aa 7a3f
00000110: 5ab3 7b3f d042 813f d42e 803f 3f67 853f
00000120: 6d44 853f 78c1 843f 814b 843f 3807 823f
00000130: 9454 823f b4f8 813f 80b0 853f 5224 7e3f
00000140: 06f7 7c3f 0f4f 833f b9ce 7f3f 4b6a 7b3f
00000150: f59b 823f e92d 813f 518d 813f a60e 833f
00000160: e3d8 7f3f 317b 853f 314e 813f 966b 7f3f
00000170: 4b6d 803f 0393 7d3f 21fe 833f 9890 853f
00000180: 0cd6 813f 43e2 843f b28b 803f ff14 7f3f
00000190: 2430 873f 1e99 823f 03cb 813f 3a69 7d3f
000001a0: 1e18 833f 5b2c 843f 8a44 753f c74e 7b3f
000001b0: 979f 7f3f 9b70 7a3f 4008 7f3f dfeb 7d3f
000001c0: 1801 793f 85b5 7c3f f1f1 813f 471a 853f
000001d0: 0526 823f a0f4 843f 2a24 803f 747a 7d3f
000001e0: 4a6b 843f 0dd3 843f 190c 7e3f 1c6b 7e3f
000001f0: 54f0 813f 0ff7 7d3f 8cdb 843f 1dfe 803f

arith.constant32 f4 [1, 1, 128]
0.032733012 -0.05259267 -0.049291298 -0.03605881 0.05185356 -0.031186596 -0.021533253 0.0089135375
0.017185206 0.006530881 -0.021387408 -0.02545379 -0.0035208063 0.0095215235 0.0016491148 0.054832198
0.014643773 -0.01297733 0.018325001 -0.009897278 -0.03692683 -0.032068234 -0.024272302 0.019633038
-0.0142864995 -0.061746314 -0.018858256 -0.027812352 0.020222394 0.0063003106 -0.036856364 0.05858875
-0.00214981 0.01437679 -0.012654269 -0.00018235327 0.00946962 -0.016773324 -0.029093048 0.009918636
-0.02091666 0.03399002 0.009998345 0.051310603 0.016216278 0.0036350316 0.02976075 0.008495609
-0.015643626 -0.018256152 0.029879402 0.016619302 -0.02134999 0.027812662 -0.02406469 -0.0023439177
-0.023046404 -0.010434136 0.031538557 0.06738521 0.022918057 -0.04333296 -0.033911332 0.006906551
-0.054700736 -0.008293625 -0.00319022 -0.034740448 -0.02681156 -0.04136742 -0.008299808 0.027608514
0.015799677 -0.026259573 -0.03183061 -0.0027382253 -0.026177835 0.008838366 0.056832846 -0.016504155
-0.008870881 -0.013162457 0.036773324 -0.023165628 0.007835916 -0.0014660986 -0.028080914 -0.0024526208
-0.02187509 -0.016452216 -0.0046334458 -0.01101442 -0.02565566 0.04577011 0.0071788705 0.040886294
0.0020855006 0.004807059 -0.055692334 0.05286811 -0.061452758 0.04641682 0.019234024 -0.024646325
-0.040856246 0.041880213 -0.023938356 0.0058747884 0.0116488105 0.0043646065 -0.057683513 0.018601878
-0.063150965 -0.027949302 0.020282842 0.014954782 -0.02470432 -0.01836129 -0.020740217 -0.0022980622
-0.012161392 0.04383995 0.01792958 0.031245299 0.017025825 -0.010047893 -0.03771826 0.014241687
00000000: 0d13 063d 696b 57bd ace5 49bd 67b2 13bd
00000010: 6664 543d 087b ffbc 8166 b0bc 160a 123c
00000020: fdc7 8c3c 0001 d63b a534 afbc 7784 d0bc
00000030: 54bd 66bb 2a00 1c3c 1c27 d83a ba97 603d
00000040: 70ec 6f3c de9e 54bc 501e 963c 3128 22bc
00000050: 9640 17bd fb59 03bd b5d6 c6bc 77d5 a03c
00000060: ec11 6abc b4e9 7cbd a17c 9abc bbd6 e3bc
00000070: 6fa9 a53c d672 ce3b b3f6 16bd c2fa 6f3d
00000080: d4e3 0cbb a18c 6b3c da53 4fbc 1536 3fb9
00000090: 7726 1b3c 3668 89bc 8b54 eebc c681 223c
000000a0: 6a59 abbc 1f39 0b3d 19d0 233c 112b 523d
000000b0: 00d8 843c b639 6e3b d1cc f33c 2b31 0b3c
000000c0: 1027 80bc ed8d 95bc a6c5 f43c 3425 883c
000000d0: 2de6 aebc 61d7 e33c 5023 c5bc 6a9c 19bb
000000e0: d0cb bcbc f0f3 2abc 932e 013d 4201 8a3d
000000f0: a6be bb3c e77d 31bd 9ce6 0abd 5950 e23b
00000100: e10d 60bd fce1 07bc 0313 51bb 004c 0ebd
00000110: eba3 dbbc e270 29bd ebfb 07bc 402b e23c
00000120: 536e 813c 511e d7bc d060 02bd cc73 33bb
00000130: e672 d6bc cbce 103c 8fc9 683d b933 87bc
00000140: 2c57 11bc 59a7 57bc a09f 163d d8c5 bdbc
00000150: 3762 003c 1b2a c0ba f209 e6bc 26bc 20bb
00000160: 6433 b3bc ccc6 86bc 29d4 97bb d375 34bc
00000170: d22b d2bc 7079 3b3d bb3c eb3b 6378 273d
00000180: e5ac 083b 8984 9d3b a51d 64bd 3b8c 583d
00000190: e3b5 7bbd 901f 3e3d ac90 9d3c 17e7 c9bc
000001a0: e158 27bd 968a 2b3d 5f1a c4bc 4c81 c03b
000001b0: a7da 3e3c f904 8f3b 8c45 6cbd f762 983c
000001c0: 4b55 81bd eff5 e4bc 3428 a63c e704 753c
000001d0: b760 cabc 6b6a 96bc 63e7 a9bc 169b 16bb
000001e0: 9340 47bc 8591 333d 0ee1 923c 24f6 ff3c
000001f0: be79 8b3c eb9f 24bc 767e 1abd f755 693c

arith.constant33 f4 [1, 1, 128]
1.0036054 1.0078746 1.02594 0.9805509 0.99776286 1.0001984 1.0238497 0.9856035
1.006044 1.0277722 1.0118756 0.99849576 1.002875 1.0203859 1.0364761 1.0107759
0.97177064 1.0278847 1.0195282 1.0028881 1.012219 1.0445461 0.96632123 0.9850913
1.0065957 0.98047495 0.94321245 0.9979375 1.0218556 0.99942416 0.9999993 0.97513384
1.0054791 0.982459 1.0189215 1.0585262 1.0182513 0.98759997 1.0195732 0.984789
1.0495819 0.99424565 0.9683402 0.98878086 0.9804936 1.0286283 0.97853345 1.0091418
1.0147679 0.9816432 0.98228663 1.0026873 1.0185964 0.9872424 0.99984527 1.0319736
0.98901856 0.9965513 1.0285064 1.02315 0.9970784 1.0076139 1.017615 0.99297494
0.9847644 0.9604852 1.0098426 0.9929433 1.0237519 1.0134851 0.9771982 0.96134883
0.98771477 1.0274347 0.954514 0.98112124 1.0192838 0.97731084 1.0203574 0.9855288
0.9968068 0.9860188 1.0495424 0.96620095 0.98163414 1.0329477 0.9830316 1.0212841
0.9663407 0.9781648 0.96708894 0.9888328 0.9786583 0.95452267 1.004052 1.0415528
1.0503384 0.9885715 1.0118879 1.0070579 0.9831853 0.96030235 1.0355392 1.0129586
0.98045784 1.0192243 1.0020851 1.0431381 1.01263 1.0241275 0.96520054 1.0170193
0.99453014 0.97775483 0.9919595 0.997054 0.9426682 1.0090628 0.99946743 0.97126365
0.96680397 0.9866101 0.97376937 0.9669421 0.96496874 0.95671666 0.9758087 0.9836898
00000000: 2476 803f 0902 813f 0052 833f 6205 7b3f
00000010: 636d 7f3f 8006 803f 820d 833f 8350 7c3f
00000020: 0dc6 803f 0a8e 833f 2485 813f 6b9d 7f3f
00000030: 355e 803f 019c 823f 40ab 843f 1b61 813f
00000040: f6c5 783f ba91 833f e67f 823f a35e 803f
00000050: 6490 813f b0b3 853f d460 773f f22e 7c3f
00000060: 21d8 803f 6800 7b3f 5f76 713f d578 7f3f
00000070: 2acc 823f 43da 7f3f f4ff 7f3f 5fa2 793f
00000080: 8ab3 803f 6f82 7b3f 056c 823f c97d 873f
00000090: 0f56 823f 5ad3 7c3f 6081 823f 221b 7c3f
000000a0: b358 863f e286 7e3f 25e5 773f be20 7d3f
000000b0: a101 7b3f 18aa 833f 2b81 7a3f 8f2b 813f
000000c0: eae3 813f f84c 7b3f 2377 7b3f 0f58 803f
000000d0: 5e61 823f ebbb 7c3f dcf5 7f3f b617 843f
000000e0: 5230 7d3f fc1d 7f3f 19a6 833f 94f6 823f
000000f0: 8840 7f3f 7ef9 803f 3541 823f 9b33 7e3f
00000100: 8519 7c3f 5ce2 753f 8642 813f 8831 7e3f
00000110: 4d0a 833f e1b9 813f a929 7a3f f51a 763f
00000120: e0da 7c3f fb82 833f 085b 743f c32a 7b3f
00000130: e477 823f 0b31 7a3f 129b 823f 9e4b 7c3f
00000140: bb2e 7f3f ba6b 7c3f 6857 863f f258 773f
00000150: 604c 7b3f a137 843f f5a7 7b3f 70b9 823f
00000160: 1b62 773f 0269 7a3f 2493 773f 2524 7d3f
00000170: 5a89 7a3f 995b 743f c784 803f 9a51 853f
00000180: 7d71 863f 0613 7d3f 8b85 813f 46e7 803f
00000190: 08b2 7b3f 60d6 753f 8c8c 843f a1a8 813f
000001a0: 49ff 7a3f f175 823f 5344 803f 8d85 853f
000001b0: dc9d 813f 9c16 833f 6217 773f b02d 823f
000001c0: 8799 7e3f 244e 7a3f 0ff1 7d3f ee3e 7f3f
000001d0: b452 713f f828 813f 19dd 7f3f bca4 783f
000001e0: 7780 773f 7b92 7c3f f348 793f 8489 773f
000001f0: 3108 773f 62eb 743f 99ce 793f 18d3 7b3f
