models/gesture_model.tflite (tflite, 768376 bytes, 44 tensors)

arith.constant17 f4 [128]
0.013792401 0.008299748 0.034424283 0.027867148 0.009740228 -0.024651099 -0.0049602743 -0.03136713
-0.0041109566 0.0025037683 -0.011545284 0.00073923735 0.009856156 0.010391105 0.021510039 0.0010408381
0.014444019 -0.0024256506 0.0127512645 0.00040519758 0.009288962 0.0017980308 0.025318988 0.0063693407
-0.0064527737 0.0130136255 0.022726435 -0.0068279007 0.0026630836 -0.0069050025 -0.0044652256 -0.016525185
-0.0027538459 -0.013032847 0.0038340897 0.021239985 -0.0071444064 0.017806888 -0.0030922603 0.005736123
-0.0044284877 0.016192418 0.01001404 0.028181566 0.014321554 0.013021853 -0.0031274462 0.020738516
-0.022587422 0.00060572074 0.003459769 -0.0031311905 0.008247703 0.0009840822 0.008540065 0.0029380582
0.0006550706 0.0086052725 -0.012270842 6.714433e-05 0.013735482 0.003100179 -0.013531671 -0.005007432
0.008062789 -0.0016371565 0.0032817787 -0.0075525427 -0.030095171 -0.0028736978 0.02559649 0.009175016
-0.0055839494 0.009200707 0.007406818 -0.0045077675 0.00845936 -0.018129822 -0.009469874 0.017742451
0.0048661884 0.008534354 0.025456533 -0.004398768 -0.019702978 0.0122942 -0.0019156664 0.0014018498
0.016390027 -0.010445661 0.024314461 0.002991951 0.026938241 -0.0075369175 0.00073943 0.00043707615
-0.0051202155 -0.0009697354 0.02583574 0.004169386 -0.008050991 -0.024229594 0.018049965 0.009316532
0.018574385 -0.013903798 0.012058553 -0.005812718 0.021519544 0.008355397 0.010497666 0.004173271
0.0047289343 -0.012825991 0.017158143 0.007017105 -0.005848422 -0.020371465 -0.007353192 0.015569665
0.010261128 0.003389968 0.024901912 0.017001418 -0.024303114 0.015975755 0.0036048049 0.014640448
00000000: 86f9 613c abfb 073c 7a00 0d3d a549 e43c
00000010: 7a95 1f3c 1af1 c9bc cc89 a2bb d27a 00bd
00000020: 34b5 86bb 4316 243b 6e28 3dbc 61c9 413a
00000030: b77b 213c 743f 2a3c d235 b03c bb6c 883a
00000040: 9ba6 6c3c aaf7 1ebb aeea 503c b370 d439
00000050: bb30 183c e7ab eb3a c469 cf3c e7b5 d03b
00000060: ca71 d3bb 1a37 553c ca2c ba3c 95bc dfbb
00000070: 2187 2e3b 5c43 e2bb 0751 92bb d35f 87bc
00000080: de79 34bb b987 55bc 5a45 7b3b 7aff ad3c
00000090: a01b eabb c0df 913c 85a7 4abb 16f6 bb3b
000000a0: d91c 91bb f6a5 843c ee11 243c 07dd e63c
000000b0: f4a4 6a3c 9c59 553c d7f5 4cbb d2e3 a93c
000000c0: 4209 b9bc 3bc9 1e3a 4bbd 623b a934 4dbb
000000d0: 6021 073c 52fc 803a a1eb 0b3c 708c 403b
000000e0: 0bb9 2b3a 21fd 0c3c a40b 49bc d6cf 8c38
000000f0: c90a 613c 5f2c 4b3b f1b3 5dbc 6215 a4bb
00000100: ca19 043c db95 d6ba 1c13 573b 527b f7bb
00000110: 268a f6bc a654 3cbb bbaf d13c ce52 163c
00000120: 90f9 b6bb 90be 163c e5b4 f23b e5b5 93bb
00000130: 2199 0a3c fe84 94bc 8827 1bbc 9e58 913c
00000140: 8c74 9f3b add3 0b3c 388a d03c 8a23 90bb
00000150: 2468 a1bc 9d6d 493c 1917 fbba 46be b73a
00000160: 6144 863c 4724 2bbc 1f2f c73c 9c14 443b
00000170: 96ad dc3c 3ff8 f6bb 4fd6 413a 5e27 e539
00000180: 7bc7 a7bb d735 7eba 79a5 d33c 589f 883b
00000190: 4ee8 03bc 247d c6bc 85dd 933c 5ea4 183c
000001a0: 4f29 983c c1cc 63bc 3d91 453c 9d78 bebb
000001b0: c149 b03c 13e5 083c 67fe 2b3c efbf 883b
000001c0: 2df5 9a3b 1b24 52bc 3c8f 8c3c beef e53b
000001d0: 1fa4 bfbb 0fe2 a6bc 0cf3 f0bb e817 7f3c
000001e0: 4a1e 283c 3a2a 5e3b 18ff cb3c 8f46 8b3c
000001f0: 5317 c7bc 96df 823c 973e 6c3b 7dde 6f3c

arith.constant18 f4 [128]
0.0067408076 0.0033523806 -0.006512753 0.014113787 0.004762795 0.004001245 -0.0025788492 -0.008505535
0.012812851 0.00467729 -0.00028481687 -0.0016245232 0.0026277804 0.0030748616 -0.011926729 0.00077302265
0.009539664 0.002687803 -0.012543094 -0.0008694879 -0.01631627 0.01497672 -0.0045850053 0.009300911
0.021249345 -0.010202903 -0.014330194 0.0050383946 0.0068397652 -0.0154700065 -0.0045670196 -0.011698962
-0.0034348085 0.0046304846 0.006029654 0.0250406 -0.0110134445 -0.004945365 0.006724526 -0.0016503057
0.0065172273 0.00081936765 0.018833183 -0.004743388 -0.010511953 0.0027126889 0.00077674835 0.011942952
-0.0024903635 0.004396779 -0.028417464 0.0069084526 -0.012424764 -0.0121410955 0.00025972936 -0.031628948
0.009452628 0.0010523843 -0.005034579 0.008016739 -0.006086962 -0.003871927 -0.043041706 -0.0025739395
-0.031764317 -0.019916287 -0.00030404486 0.018432656 -0.01478125 0.026713291 0.008576414 -0.0014112174
-0.0011079467 -0.009464365 0.0004412878 -0.019417373 -0.012764591 -0.0027715955 0.006873773 0.006091703
0.009136886 0.014862614 -0.00973257 0.017973915 -0.023897534 -0.004975729 -0.011928287 0.017868152
-0.0047214213 0.030450938 0.030339366 -0.025241867 -0.0069518215 0.011035678 -0.00088248245 -0.009172305
0.008141521 0.010817937 0.001939858 -0.0022631835 -0.0057094498 0.01860263 0.0005436971 0.005047535
0.00942423 -0.006786903 -0.005613508 0.0063736252 0.014671183 0.0037569408 0.0012850357 0.004051409
-0.014090591 0.013174971 -5.761117e-05 -0.007294102 0.00097597175 -0.0072944304 -0.007108471 0.03144773
0.015693888 0.02036082 -0.00828046 -0.0089266915 -0.011209255 0.0034195448 0.0045556244 -0.009459163
00000000: fee1 dc3b 9db3 5b3b ef68 d5bb 833d 673c
00000010: 3811 9c3b e01c 833b e901 29bb cd5a 0bbc
00000020: feec 513c f443 993b 7953 95b9 f4ed d4ba
00000030: d736 2c3b 9e83 493b 5468 43bc aca4 4a3a
00000040: 404c 1c3c da25 303b 8d81 4dbc 58ee 63ba
00000050: b3a9 85bc eb60 753c d03d 96bb d962 183c
00000060: 1b13 ae3c 142a 27bc 31c9 6abc 1e19 a53b
00000070: 1c20 e03b e975 7dbc f0a6 95bb 01ad 3fbc
00000080: 861a 61bb 52bb 973b 6794 c53b f221 cd3c
00000090: bc71 34bc ba0c a2bb 6a59 dc3b 124f d8ba
000000a0: 778e d53b d5ca 563a 0c48 9a3c 6c6e 9bbb
000000b0: 543a 2cbc 5ec7 313b b39e 4b3a 5fac 433c
000000c0: 5e35 23bb db12 903b becb e8bc 4d60 e23b
000000d0: 3d91 4bbc 72eb 46bc 492c 8839 5b8d 01bd
000000e0: 32df 1a3c 28f0 893a 1cf9 a4bb a458 033c
000000f0: 2375 c7bb 28c0 7dbb 804c 30bd 8aaf 28bb
00000100: 4d1b 02bd 7b27 a3bc 3668 9fb9 1500 973c
00000110: 0e2d 72bc d5d5 da3c 1684 0c3c 99f8 b8ba
00000120: 8638 91ba 6d10 1bbc a55c e739 2f11 9fbc
00000130: 9322 51bc a8a3 35bb 633d e13b e99c c73b
00000140: e1b2 153c 5282 733c 5b75 1fbc 083e 933c
00000150: c3c4 c3bc 710b a3bb dd6e 43bc 3b60 923c
00000160: 27b6 9abb 3f74 f93c 438a f83c 08c8 cebc
00000170: 1bcc e3bb fdce 343c 6556 67ba 7047 16bc
00000180: 0464 053c b73d 313c d542 fe3a eb51 14bb
00000190: 5616 bbbb 8b64 983c e586 0e3a cb65 a53b
000001a0: 1668 1a3c ab64 debb 85f1 b7bb d8d9 d03b
000001b0: 675f 703c 0237 763b a56e a83a afc1 843b
000001c0: 39dc 66bc d5db 573c 86a3 71b8 5d03 efbb
000001d0: 5bd8 7f3a 1e06 efbb 2dee e8bb 56cf 003d
000001e0: 7890 803c bccb a63c c4aa 07bc 4241 12bc
000001f0: 06a7 37bc 711a 603b 5947 953b 9bfa 1abc

arith.constant19 f4 [4, 32]
2.711856e-06 -2.0884818e-07 2.5105694e-06 2.1957294e-07 2.530939e-07 1.0609714e-06 -1.5660227e-06 4.9685946e-06
1.5644168e-06 -9.994422e-07 1.3661529e-06 -2.348797e-06 3.7274413e-06 3.1637612e-06 3.4884433e-06 -4.690914e-06
-5.511343e-07 -2.6110304e-06 -7.109582e-07 -1.9258919e-06 -2.9868302e-06 -4.798016e-07 -3.471428e-06 -1.517931e-06
-5.9532376e-06 -2.9811602e-06 1.0735257e-06 -1.0940317e-06 2.0773625e-07 -3.8937236e-07 2.83587e-06 -2.7961196e-06
-4.268298e-06 2.712786e-06 -1.0221841e-07 -3.0768208e-06 6.583596e-07 -3.251401e-06 -1.1271018e-06 -1.5768176e-06
3.8717862e-06 -7.733519e-06 -2.7576052e-06 4.0175587e-07 2.0633024e-06 -3.5981768e-06 1.2022567e-06 -1.7008042e-06
1.7111103e-06 4.2779416e-06 2.0880364e-06 3.851265e-06 -8.4717567e-07 -1.6256608e-06 -1.4732966e-06 -1.730548e-06
7.7498606e-07 4.8271414e-07 -6.3231994e-07 3.3106655e-06 2.5251466e-06 1.2879715e-06 -9.253908e-07 4.558795e-06
-3.0252847e-06 3.2193222e-07 -1.0766032e-06 1.011018e-06 3.6593162e-06 1.0407598e-06 -1.9099349e-07 -9.603588e-07
-1.5685953e-06 3.4481623e-06 -4.024216e-06 -1.6091942e-06 3.9749693e-06 -5.7691676e-07 -1.0517659e-06 3.6137244e-06
-2.0123682e-07 -1.7622474e-06 -1.1466299e-06 -1.9593645e-06 1.3786919e-06 1.4502639e-07 -2.3252974e-06 1.2772806e-07
2.7873464e-06 4.7296632e-07 5.0134795e-06 4.639086e-06 -5.8867107e-07 -2.2064578e-06 -7.223492e-07 -2.825272e-06
1.9552363e-08 3.4944965e-06 -1.1326209e-06 -3.716534e-06 1.8906726e-07 -2.7603876e-06 8.325039e-07 1.8353019e-06
1.8370018e-06 -1.6417063e-07 8.580548e-06 8.246124e-07 7.9650414e-07 8.523718e-07 -7.508425e-09 1.052195e-06
5.5391442e-06 -2.5061022e-06 -3.6728159e-06 -2.8101342e-06 1.3281314e-07 -5.467802e-06 3.8192314e-07 -1.0160078e-06
-6.6655423e-07 -1.1810652e-06 5.6087833e-07 1.3610884e-07 -1.003189e-07 -2.388919e-06 8.6846677e-07 -2.904755e-06
00000000: 55fd 3536 c03f 60b4 417b 2836 c0c3 6b34
00000010: f6e0 8734 b366 8e35 2130 d2b5 e7b7 a636
00000020: f4f8 d135 9324 86b5 a85c b735 06a0 1db6
00000030: f424 7a36 0151 5436 001b 6a36 a566 9db6
00000040: a9f1 13b5 2939 2fb6 add8 3eb5 923e 01b6
00000050: 5a71 48b6 b7cb 00b5 aef6 68b6 b6bb cbb5
00000060: ecc1 c7b6 f10f 48b6 1016 9035 a5d6 92b5
00000070: 1b0e 5f34 ee0a d1b4 e04f 3e36 f8a4 3bb6
00000080: 6738 8fb6 4f0d 3636 2a83 dbb3 617b 4eb6
00000090: 21ba 3035 a532 5ab6 ec46 97b5 0aa3 d3b5
000000a0: 64ea 8136 36bf 01b7 4c0f 39b6 e8b0 d734
000000b0: 4477 0a36 3578 71b6 3a5d a135 3047 e4b5
000000c0: 4da9 e535 3d8b 8f36 3120 0c36 1d3a 8136
000000d0: 7869 63b5 4831 dab5 16be c5b5 2d45 e8b5
000000e0: a308 5035 dd93 0135 b2bc 29b5 cd2c 5e36
000000f0: b075 2936 5dde ac35 5f68 78b5 c0f7 9836
00000100: ff05 4bb6 07d6 ac34 ce7f 90b5 50b2 8735
00000110: 9392 7536 3cb0 8b35 e413 4db4 ade5 80b5
00000120: 8688 d2b5 fa66 6736 c107 87b6 7efb d7b5
00000130: ba60 8536 6bdd 1ab5 672a 8db5 5083 7236
00000140: 8e13 58b4 5c86 ecb5 e7e5 99b5 a07d 03b6
00000150: 7e0b b935 8db8 1b34 4e0c 1cb6 9f25 0934
00000160: 3f0e 3b36 ffeb fd34 7639 a836 72a9 9b36
00000170: 2b05 1eb5 a812 14b6 76e7 41b5 ce99 3db6
00000180: 1af4 a732 fe82 6a36 8f04 98b5 9169 79b6
00000190: 6a02 4b34 193f 39b6 3b79 5f35 7e54 f635
000001a0: e78e f635 e146 30b4 2cf5 0f37 ef5a 5d35
000001b0: 59cf 5535 8bce 6435 67fe 00b2 2539 8d35
000001c0: e3dc b936 822e 28b6 7f7a 76b6 bd95 3cb6
000001d0: 669b 0e34 1078 b7b6 1e0b cd34 c35d 88b5
000001e0: 42ed 32b5 1785 9eb5 448f 1635 5025 1234
000001f0: e66e d7b3 5151 20b6 9520 6935 50ef 42b6

arith.constant20 f4 [4, 32]
-0.03988896 -0.011205588 -0.008225906 0.028270544 -0.012315913 -0.0063388697 0.008767238 -0.048926968
-0.030964574 0.00084854546 -0.03501551 0.03952932 0.034830194 0.002020199 0.046512745 0.045622747
-0.060421027 -0.0492382 0.039061397 0.03365365 -0.00403949 0.038827647 0.039941635 -0.008630817
0.015869364 -0.046831228 -0.00016491914 0.036647726 0.008421551 -0.02555505 -0.038079295 -0.06086288
-0.010360234 0.0323657 0.023480907 0.013468669 0.013694355 0.007810599 -0.031392395 -0.013283489
-0.012992366 -0.005347413 0.010119921 -0.017205525 0.01393029 -0.032683223 0.03647185 -0.03993124
0.04178898 0.036012854 0.027541295 0.01778076 0.013008139 -0.014349015 -0.03586543 0.005788708
-0.025296172 0.0076536727 -0.029542081 -0.024260646 0.026158532 -0.031821836 -0.008439061 0.042036403
0.014762175 0.01558357 0.016745634 -0.021187738 0.008233677 -0.0052687065 -0.018221002 0.00067019655
0.03219114 -0.017186418 -0.02149683 0.010958553 0.030828264 0.0025625292 0.00960796 0.01674019
0.04220695 0.01881005 0.009618445 0.017755369 0.059254467 0.008973192 0.04229162 -0.029773137
-0.032558825 0.013929127 0.015551154 0.015957374 0.0037438616 0.023741655 0.009879295 -0.016912518
-0.049335465 -0.029039733 -0.031208737 -0.04029239 -0.013824227 -0.051516406 -0.015211938 0.02080353
0.046384003 -0.036461025 0.03132737 -0.042964015 -0.05648532 -0.039460476 0.030164853 -0.021808954
0.05012508 -0.057427216 0.048304908 0.02281689 0.019347655 -0.040335316 -0.027263466 -0.023278892
0.033431463 0.056392767 0.02752018 -0.013667103 -0.007073254 0.027043577 0.026799988 0.020016186
00000000: 9b62 23bd a497 37bc f3c5 06bc a197 e73c
00000010: afc8 49bc 4bb6 cfbb 76a4 0f3c a567 48bd
00000020: 6ba9 fdbc ec70 5e3a 6c6c 0fbd 7fe9 213d
00000030: 1baa 0e3d 5165 043b 2684 3e3d ebde 3a3d
00000040: 0a7c 77bd ffad 49bd d8fe 1f3d 69d8 093d
00000050: b35d 84bb bd09 1f3d d799 233d 4568 0dbc
00000060: 7800 823c 1ad2 3fbd 25ee 2cb9 ed1b 163d
00000070: 8cfa 093c d358 d1bc 09f9 1bbd 5b4b 79bd
00000080: f9bd 29bc e591 043d 085b c03c b1ab 5c3c
00000090: 4a5e 603c 0ef0 ff3b 5095 00bd fea2 59bc
000000a0: efdd 54bc 5a39 afbb 06ce 253c 9af2 8cbc
000000b0: df3b 643c d8de 05bd 8263 153d f18e 23bd
000000c0: ec2a 2b3d 3782 133d 489e e13c f5a8 913c
000000d0: 1720 553c 2218 6bbc a1e7 12bd 34af bd3b
000000e0: eb39 cfbc a9cb fa3b 3c02 f2bc 43be c6bc
000000f0: 6b4a d63c 9d57 02bd fd43 0abc 5d2e 2c3d
00000100: 0ddd 713c 3b52 7f3c 242e 893c e891 adbc
00000110: 8be6 063c 1da5 acbb 3644 95bc 21b0 2f3a
00000120: dbda 033d 88ca 8cbc 1f1a b0bc 818b 333c
00000130: 8e8b fc3c 1bf0 273b b46a 1d3c b922 893c
00000140: 32e1 2c3d 8917 9a3c af96 1d3c b573 913c
00000150: d0b4 723d 4c04 133c fa39 2d3d cbe6 f3bc
00000160: 675c 05bd fe36 643c 44ca 7e3c 0ab9 823c
00000170: 935b 753b dc7d c23c c4dc 213c 1f8c 8abc
00000180: fc13 4abd bce4 edbc 77a9 ffbc a209 25bd
00000190: 037f 62bc de02 53bd 7e3b 79bc 2a6c aa3c
000001a0: 27fd 3d3d 2858 15bd 2151 003d 09fb 2fbd
000001b0: 275d 67bd 4fa1 21bd 481c f73c b1a8 b2bc
000001c0: f54f 4d3d cd38 6bbd 5edb 453d 7dea ba3c
000001d0: f97e 9e3c a536 25bd a257 dfbc 60b3 bebc
000001e0: 6eef 083d 1afc 663d 0072 e13c fceb 5fbc
000001f0: c1c6 e7bb 7e8a dd3c a68b db3c fcf8 a33c

arith.constant21 f4 [4, 32]
-0.007397964 0.018222265 -0.0021548523 0.012459492 -0.0008987637 0.0062123784 0.007595645 0.011459387
0.013552939 0.010461443 -0.015764829 0.00028298682 0.033379544 -0.016594678 -0.0017853737 0.008218714
0.00297007 0.011869618 -0.004535198 0.004959825 -0.005421678 -0.0023523106 -0.009395382 0.00018775262
-0.007655572 -0.00035676258 0.0064995415 0.01634848 -0.009851461 -0.009421733 -0.00096722424 0.0045285965
0.003320577 -0.0065143486 -0.009814799 0.014081054 0.008518259 -0.0017181681 -0.011602823 0.015380408
-0.0025752725 -0.012091703 -0.0075651603 0.015089948 0.009520908 0.0033080662 -0.018844213 0.01181101
-0.016362438 0.01906935 -0.025919605 0.009830856 0.0034614007 -0.0006565399 -0.012409223 -0.009657237
0.006430526 0.010923123 -0.019297877 0.00043364472 0.0011932353 -0.011375768 0.00060376123 0.0222804
0.0248874 -0.004619859 0.008697415 -0.01881891 -0.0037325667 0.002460306 -0.0093182735 0.0008157997
0.008270707 -0.00037369123 -0.010017414 0.010556023 -0.012151788 0.008481085 0.005985014 -0.014567118
-0.00923107 0.0010911963 0.007874449 0.009519836 0.01229991 0.005486211 0.012905758 0.009221173
-0.012284987 0.002404135 -0.015384104 -0.010002767 -0.02421165 -0.015317042 -0.01352736 0.004841208
0.0038113017 0.0053902925 -0.0013695179 -0.0057989885 0.0031823162 0.003966313 -0.010864845 -0.0095920125
-0.026342029 -0.023480307 -0.0055354265 0.0061782794 -0.012329655 -0.015590054 -0.01039356 0.00048665048
0.020826764 -0.0063384846 -0.022220755 -0.006312278 -0.014688066 -0.004137017 -0.0056598396 0.010350694
0.030634008 0.006617674 -0.004031559 0.018899038 -0.0033359746 -0.010592349 -0.008886844 0.005578415
00000000: 9f6a f2bb dc46 953c 6c38 0dbb e622 4c3c
00000010: 039b 6bba 3591 cb3b e3e4 f83b 27c0 3b3c
00000020: 250d 5e3c 7966 2b3c 3e25 81bc d95d 9439
00000030: fdb8 083d 90f1 87bc 3303 eaba c9a7 063c
00000040: 82a5 423b c978 423c 009c 94bb 0786 a23b
00000050: 55a8 b1bb 3929 1abb 17ef 19bc 76df 4439
00000060: 98db fabb dd0b bbb9 1bfa d43b 3fed 853c
00000070: 0668 21bc 9d5d 1abc 528d 7dba 9f64 943b
00000080: 0a9e 593b 5176 d5bb 40ce 20bc 39b4 663c
00000090: 2b90 0b3c 2834 e1ba c419 3ebc 1bfe 7b3c
000000a0: e7c5 28bb 471c 46bc 2ae5 f7bb d43b 773c
000000b0: 95fd 1b3c 24cc 583b 2e5f 9abc f782 413c
000000c0: 850a 86bc 5337 9c3c 5a55 d4bc 9911 213c
000000d0: abd8 623b a61b 2cba 0e50 4bbc 6339 1ebc
000000e0: 29b7 d23b e6f6 323c 9516 9ebc cf5a e339
000000f0: 5566 9c3a 6e61 3abc bb45 1e3a 6385 b63c
00000100: a9e0 cb3c 3062 97bb 9a7f 0e3c 1d2a 9abc
00000110: 149e 74bb 163d 213b acab 18bc 64db 553a
00000120: dc81 073c fdeb c3b9 1420 24bc 2bf3 2c3c
00000130: 4b18 47bc 40f4 0a3c f01d c43b ecaa 6ebc
00000140: ea3d 17bc 7906 8f3a d503 013c 16f9 1b3c
00000150: 9085 493c acc5 b33b ac72 533c 6714 173c
00000160: f846 49bc b18e 1d3b 9c0d 7cbc a5e2 23bc
00000170: 8357 c6bc 55f4 7abc dca1 5dbc ffa2 9e3b
00000180: 08c7 793b 0da1 b03b 6581 b3ba 7105 bebb
00000190: 688e 503b d8f7 813b 7602 32bc d127 1dbc
000001a0: 3dcb d7bc c659 c0bc 8662 b5bb 2a73 ca3b
000001b0: 5202 4abc 6d6d 7fbc c049 2abc 1f25 ff39
000001c0: e49c aa3c 10b3 cfbb 4d08 b6bc 3ad7 cebb
000001d0: 37a6 70bc d08f 87bb 2d76 b9bb f595 293c
000001e0: 2cf4 fa3c 13d9 d83b 2b1b 84bb 28d2 9a3c
000001f0: 5ea0 5abb 888b 2dbc 209a 11bc 23cb b63b

arith.constant22 f4 [64]
26.769495 20.819998 28.048363 20.489859 27.946909 18.210331 25.290834 23.33799
19.852003 22.77395 17.50131 12.541313 21.681978 13.480767 15.67417 21.459888
25.774632 15.835916 24.676243 10.763099 20.418303 28.345814 19.690859 27.866583
21.634113 26.420439 24.055246 17.952915 25.550343 25.038847 14.641433 16.14995
19.69216 25.229328 21.356678 24.064404 20.987535 22.303566 11.1318035 23.914394
23.789366 19.082378 23.78301 24.392187 25.120134 21.22857 21.107428 23.925806
26.506676 20.15091 24.293518 27.975124 18.721228 19.307623 25.263025 26.263897
14.323234 20.577642 19.216078 23.792147 26.002329 20.662458 20.826187 15.937054
00000000: ed27 d641 5b8f a641 0c63 e041 3beb a341
00000010: 4593 df41 c2ae 9141 a153 ca41 34b4 ba41
00000020: e7d0 9e41 0d31 b641 af02 8c41 38a9 4841
00000030: b174 ad41 39b1 5741 66c9 7a41 daad ab41
00000040: 7232 ce41 e95f 7d41 f268 c541 a735 2c41
00000050: af58 a341 3ac4 e241 e186 9d41 c3ee de41
00000060: aa12 ad41 0f5d d341 2571 c041 929f 8f41
00000070: 1a67 cc41 8f4f c841 4f43 6a41 1933 8141
00000080: 8b89 9d41 aad5 c941 7ada aa41 e683 c041
00000090: 79e6 a741 b46d b241 de1b 3241 ae50 bf41
000000a0: 9f50 be41 b6a8 9841 9b43 be41 3323 c341
000000b0: 09f6 c841 1dd4 a941 03dc a841 0d68 bf41
000000c0: ac0d d441 1035 a141 2059 c241 0ecd df41
000000d0: 13c5 9541 0376 9a41 ad1a ca41 761c d241
000000e0: f72b 6541 039f a441 87ba 9941 5156 be41
000000f0: c504 d041 b74c a541 089c a641 2cfe 7e41

arith.constant23 f4 [64]
-0.5103569 -0.39952028 -0.25020278 -0.49058267 -0.2098758 -0.33941895 -0.5257585 -0.4642964
-0.43090418 -0.3954318 -0.3389098 -0.5213584 -0.27489686 -0.58726394 -0.33839753 -0.41710746
-0.35409132 -0.52480215 -0.39009854 -0.43641874 -0.50238025 -0.1804195 -0.28209335 -0.15401654
-0.45123318 -0.3052166 -0.538286 -0.49795467 -0.37439194 -0.37468442 -0.55221087 -0.43974435
-0.30706877 -0.37169778 -0.51430964 -0.36621395 -0.28648773 -0.68916786 -0.5656564 -0.31030747
-0.38363937 -0.54784036 -0.4734398 -0.362696 -0.52548534 -0.47549966 -0.4397038 -0.48296708
-0.27559438 -0.37870872 -0.2685767 -0.32858452 -0.36770388 -0.30455396 -0.38692304 -0.2615587
-0.32607573 -0.49410474 -0.32595956 -0.29436055 -0.2552665 -0.614465 -0.25608456 -0.5816728
00000000: c0a6 02bf ec8d ccbe 941a 80be a72d fbbe
00000010: afe9 56be 52c8 adbe 1c98 06bf 42b8 edbe
00000020: 799f dcbe 0976 cabe 9685 adbe be77 05bf
00000030: 48bf 8cbe ee56 16bf 7142 adbe 1c8f d5be
00000040: 754b b5be 6f59 06bf ffba c7be 4772 dfbe
00000050: fe9b 00bf e4bf 38be 8a6e 90be 83b6 1dbe
00000060: 0908 e7be 5a45 9cbe 1ccd 09bf eaf3 febe
00000070: 4db0 bfbe a3d6 bfbe b15d 0dbf 2c26 e1be
00000080: 1e38 9dbe 2c4f bebe cca9 03bf 6580 bbbe
00000090: 85ae 92be 4e6d 30bf dcce 10bf 9fe0 9ebe
000000a0: 616c c4be 443f 0cbf b466 f2be 4ab3 b9be
000000b0: 3586 06bf b174 f3be db20 e1be 7647 f7be
000000c0: b51a 8dbe 1ce6 c1be e382 89be 3b3c a8be
000000d0: af43 bcbe 7fee 9bbe c71a c6be 06eb 85be
000000e0: 66f3 a6be 4cfb fcbe 2ce4 a6be 6db6 96be
000000f0: 4ab2 82be 944d 1dbf 841d 83be 82e8 14bf

arith.constant24 f4 [64]
22.86662 29.586586 16.81483 23.444687 23.46717 19.706476 17.316824 27.724485
26.52449 23.350943 26.898079 18.915052 15.643796 17.986038 25.317444 24.801945
23.28581 15.277111 17.82592 25.175922 24.714376 18.032942 20.655552 16.335764
14.185014 22.145092 19.660831 21.31634 28.772676 15.395851 18.326906 20.440987
16.745144 21.646276 24.14399 21.841864 8.177153 25.557981 28.606176 23.887999
19.860407 24.244696 22.004036 12.416622 19.890163 22.005178 22.574533 28.830076
25.194387 16.407316 25.906303 23.199816 25.52549 27.119804 22.504932 21.402521
12.532835 16.874126 20.666086 25.735832 27.246466 19.122965 20.41352 25.406836
00000000: d6ee b641 54b1 ec41 c684 8641 b88e bb41
00000010: c4bc bb41 dda6 9d41 db88 8a41 bfcb dd41
00000020: 2832 d441 bbce ba41 442f d741 0752 9741
00000030: fd4c 7a41 68e3 8f41 208a ca41 626a c641
00000040: 5749 ba41 0c6f 7441 7c9b 8e41 4a68 c941
00000050: 0bb7 c541 7743 9041 923e a541 a5af 8241
00000060: d1f5 6241 2629 b141 6249 9d41 dd87 aa41
00000070: 712e e641 6855 7641 819d 9241 2487 a341
00000080: 0ef6 8541 932b ad41 e426 c141 23bc ae41
00000090: 9ed5 0241 bf76 cc41 73d9 e441 9f1a bf41
000000a0: 1de2 9e41 23f5 c141 4408 b041 7caa 4641
000000b0: 0e1f 9f41 9b0a b041 a598 b441 ffa3 e641
000000c0: 1b8e c941 2f42 8341 1c40 cf41 3999 b941
000000d0: 3434 cc41 5cf5 d841 1a0a b441 5d38 ab41
000000e0: 7e86 4841 36fe 8641 2554 a541 fce2 cd41
000000f0: c3f8 d941 d5fb 9841 e44e a341 3341 cb41

arith.constant25 f4 [64]
-0.4014288 -0.038715295 -0.47691414 -0.42567626 -0.539312 -0.49217436 -0.5769911 -0.1669686
-0.21948433 -0.37949628 -0.20324953 -0.60154 -0.43410906 -0.46624643 -0.25883245 -0.36860362
-0.7470899 -0.43102673 -0.2675468 -0.45253736 -0.34687594 -0.44550735 -0.37373412 -0.41245994
-0.4318379 -0.4567755 -0.30975 -0.42857283 -0.101945266 -0.53739816 -0.4313033 -0.56430846
-0.62958324 -0.53375345 -0.53426635 -0.57361585 -0.6109401 -0.4141671 -0.123494886 -0.3918013
-0.64713365 -0.3431538 -0.5347164 -0.424402 -0.34105614 -0.52487653 -0.42448077 -0.14226088
-0.1584187 -0.46104044 -0.4254783 -0.4933447 -0.26290816 -0.17140286 -0.32133514 -0.2712902
-0.48524427 -0.41346458 -0.32098582 -0.39248496 -0.22286086 -0.43017915 -0.59586954 -0.26878396
00000000: 1388 cdbe ee93 1ebd 172e f4be 3df2 d9be
00000010: 5a10 0abf 47fe fbbe b0b5 13bf d1f9 2abe
00000020: 80c0 60be 564d c2be a520 50be 87fe 19bf
00000030: 8b43 debe dab7 eebe b085 84be 9db9 bcbe
00000040: 4941 3fbf 89af dcbe e5fb 88be fab2 e7be
00000050: b999 b1be 8a19 e4be 145a bfbe f32d d3be
00000060: db19 ddbe 7ade e9be 8d97 9ebe e66d dbbe
00000070: aec8 d0bd ed92 09bf c9d3 dcbe 8576 10bf
00000080: 5e2c 21bf 11a4 08bf aec5 08bf 7dd8 12bf
00000090: 9266 1cbf b60d d4be e3ea fcbd 2e9a c8be
000000a0: 8daa 25bf dbb1 afbe 2de3 08bf 384b d9be
000000b0: e99e aebe 4f5e 06bf 8b55 d9be d6ac 11be
000000c0: 8338 22be 7e0d ecbe 4bd8 d9be ad97 fcbe
000000d0: e69b 86be 3b84 2fbe 0a86 a4be 8de6 8abe
000000e0: f071 f8be a1b1 d3be 4158 a4be caf3 c8be
000000f0: a335 64be 7140 dcbe e88a 18bf 0d9e 89be

arith.constant26 f4 [64]
24.824404 17.342112 22.913418 12.868282 20.658573 22.39053 17.520937 18.89495
18.347906 14.6585455 23.292065 17.523193 23.72856 21.27189 24.9762 22.516087
18.585518 18.320173 19.526806 17.826952 28.249004 21.804266 19.48779 19.731173
16.860294 12.7956085 21.930836 19.774641 20.445879 16.352983 23.110416 22.726322
16.820108 25.600851 22.573385 12.758958 15.609504 24.14285 16.642735 18.07335
23.757868 24.166584 20.71436 19.741142 12.286289 15.18902 19.84469 26.21004
22.782455 13.45622 25.736155 19.451841 21.4298 18.756338 16.742306 22.714039
18.968418 19.029667 20.931894 17.450369 19.559328 20.88671 10.628246 18.337013
00000000: 6198 c641 a5bc 8a41 ae4e b741 7ce4 4d41
00000010: c244 a541 ce1f b341 e12a 8c41 dc28 9741
00000020: 83c8 9241 6789 6a41 2656 ba41 802f 8c41
00000030: 17d4 bd41 d52c aa41 42cf c741 f220 b441
00000040: 24af 9441 b78f 9241 e636 9c41 999d 8e41
00000050: f6fd e141 236f ae41 fee6 9b41 71d9 9d41
00000060: e2e1 8641 d0ba 4c41 5a72 af41 7732 9e41
00000070: 2991 a341 e9d2 8241 22e2 b841 82cf b541
00000080: 958f 8641 8bce cc41 4b96 b441 b124 4c41
00000090: 87c0 7941 8f24 c141 5224 8541 3996 9041
000000a0: 1d10 be41 2a55 c141 02b7 a541 dced 9d41
000000b0: a494 4441 3a06 7341 edc1 9e41 29ae d141
000000c0: 7842 b641 ad4c 5741 a5e3 cd41 5f9d 9b41
000000d0: 3b70 ab41 fb0c 9641 3ef0 8541 5ab6 b541
000000e0: 52bf 9741 c23c 9841 8574 a741 5b9a 8b41
000000f0: 8179 9c41 fb17 a741 4c0d 2a41 34b2 9241

arith.constant27 f4 [64]
-0.2608358 -0.46806905 -0.36764795 -0.5234583 -0.35006946 -0.5730678 -0.2818596 -0.5056189
-0.5077788 -0.5955889 -0.52403414 -0.48504123 -0.31772926 -0.45603573 -0.32085967 -0.19950047
-0.45828235 -0.56995785 -0.40277252 -0.7567935 -0.15433584 -0.42999247 -0.30105874 -0.5614765
-0.48459223 -0.3630049 -0.2868372 -0.46230826 -0.30313605 -0.57148653 -0.31750876 -0.26252565
-0.404634 -0.42599133 -0.30395842 -0.5277551 -0.5335279 -0.35831165 -0.58081746 -0.4491736
-0.3674643 -0.46565133 -0.55471426 -0.43296224 -0.5218718 -0.41534334 -0.39473358 -0.2337532
-0.40547624 -0.55868804 -0.18973051 -0.51005125 -0.52542853 -0.30624744 -0.50072277 -0.3486173
-0.40195808 -0.4498918 -0.32209983 -0.57035494 -0.6260674 -0.40689296 -0.3408335 -0.30050007
00000000: 458c 85be bfa6 efbe 5a3c bcbe 5d01 06bf
00000010: 4e3c b3be 92b4 12bf e74f 90be 3d70 01bf
00000020: cbfd 01bf 8478 18bf 1a27 06bf 5357 f8be
00000030: 69ad a2be 847d e9be b847 a4be da49 4cbe
00000040: fca3 eabe c2e8 11bf 3338 cebe 38bd 41bf
00000050: 370a 1ebe f927 dcbe 5f24 9abe edbc 0fbf
00000060: 791c f8be c7db b9be 53dc 92be abb3 ecbe
00000070: a634 9bbe f14c 12bf 8290 a2be c369 86be
00000080: 302c cfbe 891b dabe 70a0 9bbe f51a 07bf
00000090: 4995 08bf a074 b7be 74b0 14bf 15fa e5be
000000a0: 4824 bcbe da69 eebe c101 0ebf 3aad ddbe
000000b0: 6499 05bf e2a7 d4be 851a cabe 005d 6fbe
000000c0: 959a cfbe 2e06 0fbf b748 42be b892 02bf
000000d0: 7c82 06bf 77cc 9cbe 5e2f 00bf f77d b2be
000000e0: 73cd cdbe 3858 e6be 45ea a4be c802 12bf
000000f0: f445 20bf 4654 d0be ba81 aebe 25db 99be

arith.constant28 f4 [1, 1, 256]
-0.013250615 -0.005825892 0.0018230855 -0.003660994 -0.00035347656 0.0013144742 0.006311723 0.0067135985
-0.007954148 0.0025793544 -0.0028408344 -0.0042225234 0.00824816 -0.0061817784 -0.019250376 -0.007378116
0.0020428996 -0.01723276 -0.013810017 0.002357747 0.0065502357 0.014789213 0.0048080324 -0.004098094
0.0056507103 -0.0029464534 0.009069646 0.005785031 -0.00068806804 -0.009042306 0.0025574146 0.0050713206
0.0031100188 0.0025459141 -0.00553499 0.0035753765 -0.0009980177 0.00039539664 -0.0014312754 0.0071968613
0.005961872 -0.0071085966 -0.0074093835 -0.009589689 0.002892309 0.0069096233 0.0051947874 0.0106958
-0.009919056 0.0064678695 0.005421374 0.005153661 -0.0011612067 0.008528577 -0.004994665 -0.0058120457
-0.0036618675 0.0011437809 0.006525354 -0.0043850825 0.002684831 -0.018964902 -0.0043601813 0.007895936
0.001584697 -0.005845876 -0.0008421922 -0.00854979 9.661733e-05 -0.0011405476 -0.0055922647 0.006694975
0.0039252397 0.0023532966 0.002872431 -0.002336224 0.0067883893 0.0017853769 -0.001525241 0.0022309686
-0.0062244507 -0.009697152 -9.399065e-05 -0.011610329 -0.0070599434 0.0039942446 0.0020376302 -0.0100057125
-0.006389734 0.0033820325 -0.00070656923 -0.0003343471 -0.0010946277 -0.0070846598 0.0049786507 0.0027224359
-0.0011639446 0.0031594832 -0.0023468444 0.007870799 -0.015137161 0.010227349 -0.0029461386 0.0030007104
0.0057094614 -0.004971514 0.004557036 0.0045563634 0.002706432 -0.0009089785 -0.0015999639 0.0042363997
-0.010375189 -0.00049835077 0.0039152796 -0.004325029 -0.0017068372 0.00061797915 0.009517974 0.018994305
-0.008395149 -0.00965801 0.0008974027 0.011440431 -0.0023464297 0.017182989 -1.38223695e-05 -0.0017505902
0.003984493 -0.0044712294 -0.008679101 -0.002723322 0.0004508325 0.019905683 -0.011220308 -0.015606059
-0.019899309 0.0029069264 0.014221727 0.0031393974 0.0059459726 0.014003859 -0.005450564 -0.0062596695
-0.00028003126 0.0013020377 0.00029797258 -0.0058068805 0.0093793105 -0.006189066 -0.013602857 -0.0040878328
0.0076839207 -0.00024395963 -0.025564432 0.004761052 -0.012719406 -0.0016531487 -0.0073554767 0.00033201752
0.020418236 0.00021056258 0.009461854 0.0067241536 -0.005105162 0.007816186 -0.006808956 -0.011065177
-0.0072347294 -0.0021815714 -0.004675008 -0.0042755534 0.0029792592 0.004594536 -0.009631905 -0.0033587348
0.0050748494 -0.0042178067 -0.0071608955 0.0055654934 -0.0015591334 0.0013273269 0.004376661 -0.006170333
-0.007030541 -0.0025306514 -0.0020804293 0.006182387 0.008069581 0.0050176214 -0.018666403 0.006051184
-0.011990064 -0.0051770285 -0.009518911 -0.0067763794 -0.0015659898 -0.008063971 0.009086706 -0.004775332
-0.010589931 0.009849467 -0.00085563614 -0.0018772135 -0.0038006774 -0.004238536 0.0022566176 -0.018286891
0.009849214 0.003863732 -0.0053630276 -0.0010090971 -0.007791137 -0.00508189 0.006217666 -0.0027090465
0.016473792 -0.0025765325 -0.0042547043 0.0051091886 -0.007199897 -0.0061362237 -0.0005821368 -0.009166935
0.010927969 -0.002163985 -0.0010985971 0.007858631 -0.007371287 -0.0038219301 -0.003462386 0.020639338
0.00032846912 -0.007401458 0.0027036788 -0.0054182457 -0.006005752 -0.004648691 0.0041429745 -0.012894917
0.006896493 -0.006359313 -0.012913772 -0.0042154854 -0.0035953585 0.0010097487 -0.00094485184 0.007410788
-0.000503477 0.002464024 0.0013252326 0.0030626268 -0.006915754 0.0010991552 0.012121039 -0.004417179
00000000: 1c19 59bc 20e7 bebb 99f4 ee3a 4aed 6fbb
00000010: d252 b9b9 6f4a ac3a 92d2 ce3b bffd db3b
00000020: 1d52 02bc 630a 293b 4b2d 3abb 185d 8abb
00000030: 4a23 073c 8490 cabb f7b2 9dbc 1fc4 f1bb
00000040: 2be2 053b b82b 8dbc 6943 62bc 6e84 1a3b
00000050: 5ca3 d63b 754e 723c b38c 9d3b 4e49 86bb
00000060: 9829 b93b 4919 41bb da98 143c 5b90 bd3b
00000070: 775f 34ba 2e26 14bc 4c9a 273b 522d a63b
00000080: 75d1 4b3b 5ad9 263b dd5e b5bb dd50 6a3b
00000090: ebcf 82ba 3d4d cf39 a299 bbba a6d3 eb3b
000000a0: cf5b c33b 3bef e8bb 6aca f2bb 121e 1dbc
000000b0: e58c 3d3b 1f6a e23b 0939 aa3b 703d 2f3c
000000c0: 8983 22bc 6cf0 d33b c8a5 b13b 0be0 a83b
000000d0: a233 98ba 72bb 0b3c 49aa a3bb f972 bebb
000000e0: f1fb 6fbb ebea 953a a3d2 d53b bdb0 8fbb
000000f0: fdf3 2f3b 485c 9bbc dadf 8ebb f55d 013c
00000100: 9cb5 cf3a c38e bfbb 90c6 5cba 6b14 0cbc
00000110: 099f ca38 6d7e 95ba 513f b7bb 8561 db3b
00000120: 4c9f 803b c439 1a3b 653f 3c3b 561b 19bb
00000130: 2371 de3b 4f03 ea3a 98ea c7ba 7135 123b
00000140: 7af6 cbbb cee0 1ebc d91c c5b8 4039 3ebc
00000150: 1957 e7bb 27e2 823b c389 053b 00ef 23bc
00000160: f960 d1bb 17a5 5d3b 0f39 39ba 4f4b afb9
00000170: 9c79 8fba 6f26 e8bb f323 a33b e56a 323b
00000180: 808f 98ba 550f 4f3b 84cd 19bb 86f4 003c
00000190: db01 78bc 9c90 273c 0114 41bb 91a7 443b
000001a0: 6f16 bb3b 15e8 a2bb 3053 953b 8c4d 953b
000001b0: 655e 313b 8448 6eba e1b5 d1ba 7fd1 8a3b
000001c0: b2fc 29bc c1a3 02ba bf4b 803b f9b8 8dbb
000001d0: f4b7 dfba e1ff 213a 47f1 1b3c f299 9b3c
000001e0: cf8b 09bc a13c 1ebc ad3f 6b3a a570 3b3c
000001f0: 8fc6 19bb 57c3 8c3c a0e6 67b7 0f74 e5ba
00000200: 5a90 823b 6483 92bb ca32 0ebc c379 32bb
00000210: b75d ec39 3e11 a33c 62d5 37bc 8eb0 7fbc
00000220: e003 a3bc 2282 3e3b 3f02 693c 59be 4d3b
00000230: 6fd6 c23b 7170 653c a59a b2bb ea1d cdbb
00000240: 29d1 92b9 23a9 aa3a 3439 9c39 a547 bebb
00000250: aeab 193c a6cd cabb 84de 5ebc 3af3 85bb
00000260: 66c9 fb3b 6acf 7fb9 806c d1bc 9902 9c3b
00000270: 0e65 50bc 77ae d8ba 3606 f1bb a312 ae39
00000280: 2544 a73c 76ca 5c39 e405 1b3c 4a56 dc3b
00000290: 3449 a7bb 760f 003c aa1d dfbb b74a 35bc
000002a0: 4f11 edbb b2f8 0ebb cf30 99bb f119 8cbb
000002b0: ad3f 433b c38d 963b 23cf 1dbc 381e 5cbb
000002c0: ec4a a63b 8735 8abb f2a5 eabb be5e b63b
000002d0: d65b ccba b3f9 ad3a 186a 8f3b 8130 cabb
000002e0: 7460 e6bb 49d9 25bb d057 08bb 9f95 ca3b
000002f0: 4736 043c dc6a a43b 49ea 98bc 0349 c63b
00000300: f971 44bc 10a4 a9bb 35f5 1bbc 640c debb
00000310: e641 cdba bf1e 04bc 68e0 143c 637a 9cbb
00000320: 6481 2dbc a95f 213c c54c 60ba d50c f6ba
00000330: c914 79bb 6be3 8abb c3e3 133b 64ce 95bc
00000340: 995e 213c ab36 7d3b 56bc afbb ae43 84ba
00000350: cb4c ffbb fc85 a6bb 90bd cb3b 428a 31bb
00000360: 0cf4 863c 0bdb 28bb 0c6b 8bbb fb6a a73b
00000370: 1ded ebbb 6012 c9bb 8a9a 18ba ea30 16bc
00000380: 390b 333c a5d1 0dbb cdfe 8fba 7dc1 003c
00000390: d68a f1bb 5979 7abb 33e9 62bb d413 a93c
000003a0: 6136 ac39 ee87 f2bb 3430 313b 8a8b b1bb
000003b0: e6cb c4bb 0c54 98bb cac1 873b 3445 53bc
000003c0: fafb e13b c961 d0bb 4994 53bc 0e22 8abb
000003d0: 1ba0 6bbb 8b59 843a efaf 77ba 32d6 f23b
000003e0: c5fb 03ba 767b 213b 6db3 ad3a 5ab6 483b
000003f0: 8d9d e2bb 8711 903a 5397 463c fcbd 90bb

arith.constant29 f4 [1, 1, 256]
0.9910416 0.98330903 0.988944 0.9923935 1.0126934 1.0008174 0.9900414 1.004181
0.9956203 0.9949265 1.0084494 0.998019 1.0117074 0.9961666 0.98512334 0.97805333
1.0056795 1.0188537 0.9847826 1.0067132 1.0065879 0.9980577 0.99854076 1.006136
0.99916685 1.0148151 1.0097219 0.99960035 0.992352 1.0150102 0.9958223 1.0131378
0.9957525 1.0042025 0.99575 0.9968197 1.0107925 0.9997445 1.0075281 1.0134039
0.9900662 0.9857056 1.0030477 1.0080403 0.98939365 0.98219746 0.9946237 0.9804244
0.98528665 1.0141705 0.9918853 0.9931711 1.0063926 0.9919967 0.99475706 0.99216473
0.996456 0.9973489 1.000295 1.0010833 1.0137234 0.99896556 0.9924258 0.9986181
0.9911667 0.9925202 1.0030656 0.9875339 1.0031646 1.0125648 0.98919064 0.99997216
1.0028533 0.99577564 0.98918766 0.9910353 0.9935093 0.9984746 0.992083 0.9962657
1.0075004 1.0250252 0.9864912 0.99146235 0.9967175 0.9907009 0.9995679 0.9959585
0.98582464 0.9989966 1.0123503 1.0078752 1.0013398 0.99717903 0.9945889 0.99502796
1.0141188 0.98269993 1.0112449 0.9988994 0.9816226 1.0106506 1.003368 1.0078926
0.99064624 1.0062865 1.0017575 0.9973536 0.9933061 1.0000678 0.9991908 1.0035722
0.9911394 0.9875394 1.0060581 0.9968193 0.9833922 0.98621297 0.97999114 0.97747487
0.9921159 0.9913502 1.0076973 0.99794716 0.9753154 0.99385023 0.9933618 1.0058092
0.99510354 0.9990397 1.0007106 1.0088485 0.9863532 0.98595864 0.99771065 1.0032878
1.0150965 1.0011078 0.98616695 0.9962486 0.9932106 1.0090545 0.99124485 1.009204
0.9962749 0.9849738 0.9924765 0.99666613 0.9995988 0.99960625 0.9915823 1.0100702
0.9918316 1.001663 1.0133265 1.022137 0.9916578 1.003257 0.9961929 1.008806
1.0111803 0.99150795 1.0170724 0.99758196 0.99349123 0.99680716 1.0014248 1.0033387
1.0035762 0.9861525 1.0027939 1.0069348 1.0004798 1.0139763 0.99462765 1.0065057
0.98177963 1.0093215 1.0095457 1.0055282 0.99695706 1.0112609 1.0074495 0.9889992
0.99125993 0.99132067 1.0055425 1.0136017 0.98338395 1.0094812 0.9978847 0.9966235
1.0209349 0.99202603 0.9940016 0.99602664 0.9966592 1.0003273 0.9974345 0.99438184
1.0080552 0.98530066 1.013688 0.9953615 0.9967467 0.996003 1.0074835 1.0061581
1.0081509 0.98900163 0.9960751 0.9865007 0.9947718 0.9962005 0.9986663 0.99777526
1.0008552 0.99100107 1.0162903 0.9959182 1.0174513 0.99760854 1.0021888 0.99975663
1.0116017 0.9888315 1.0050029 1.0141262 1.0012547 1.0032151 0.9990174 0.99845517
0.99559873 0.99881494 0.9830826 1.018257 1.0068655 1.0087291 0.9984738 1.0173448
1.0019653 1.00581 0.99801785 0.99674904 0.99922323 1.0087435 0.98632956 0.9799116
1.0069193 0.9956419 0.99594045 1.0038284 0.98695797 1.0058433 0.9887006 0.9845088
00000000: e7b4 7d3f 24ba 7b3f 6f2b 7d3f 800d 7e3f
00000010: f09f 813f c91a 803f 5a73 7d3f 0189 803f
00000020: f9e0 7e3f 81b3 7e3f df14 813f 2c7e 7f3f
00000030: a17f 813f c604 7f3f 0b31 7c3f b461 7a3f
00000040: 1bba 803f cc69 823f b61a 7c3f fadb 803f
00000050: dfd7 803f b680 7f3f 5ea0 7f3f 10c9 803f
00000060: 66c9 7f3f 76e5 813f 913e 813f cfe5 7f3f
00000070: c80a 7e3f dbeb 813f 36ee 7e3f 80ae 813f
00000080: a3e9 7e3f b589 803f 79e9 7e3f 932f 7f3f
00000090: a661 813f 41ef 7f3f aef6 803f 38b7 813f
000000a0: fa74 7d3f 3457 7c3f de63 803f 7707 813f
000000b0: e748 7d3f 4b71 7b3f a99f 7e3f 18fd 7a3f
000000c0: bf3b 7c3f 57d0 813f 32ec 7d3f 7640 7e3f
000000d0: 79d1 803f 7ff3 7d3f 66a8 7e3f 82fe 7d3f
000000e0: be17 7f3f 4252 7f3f ab09 803f 7f23 803f
000000f0: b0c1 813f 35bc 7f3f 9e0f 7e3f 70a5 7f3f
00000100: 1abd 7d3f ce15 7e3f 7464 803f 06cf 7c3f
00000110: b367 803f b99b 813f 993b 7d3f 2dfe 7f3f
00000120: 7f5d 803f 27eb 7e3f 673b 7d3f 7db4 7d3f
00000130: a056 7e3f 089c 7f3f 27f9 7d3f 450b 7f3f
00000140: c6f5 803f 0734 833f b08a 7c3f 7ad0 7d3f
00000150: e128 7f3f 939e 7d3f afe3 7f3f 23f7 7e3f
00000160: 015f 7c3f 3ebe 7f3f b294 813f 0e02 813f
00000170: e72b 803f 2047 7f3f 619d 7e3f 27ba 7e3f
00000180: a5ce 813f 3992 7b3f 7970 813f dfb7 7f3f
00000190: 9e4b 7b3f 005d 813f 5d6e 803f a002 813f
000001a0: fe9a 7d3f ffcd 803f 9739 803f 9152 7f3f
000001b0: 4f49 7e3f 3902 803f f8ca 7f3f 0e75 803f
000001c0: 50bb 7d3f 62cf 7c3f 83c6 803f 8d2f 7f3f
000001d0: 97bf 7b3f 7478 7c3f b3e0 7a3f cb3b 7a3f
000001e0: 4ffb 7d3f 20c9 7d3f 3afc 803f 7779 7f3f
000001f0: 45ae 793f f86c 7e3f f54c 7e3f 5bbe 803f
00000200: 1bbf 7e3f 11c1 7f3f 4917 803f f321 813f
00000210: a581 7c3f c967 7c3f f769 7f3f bc6b 803f
00000220: afee 813f 4d24 803f 7075 7c3f 260a 7f3f
00000230: 0d43 7e3f b328 813f 39c2 7d3f 992d 813f
00000240: df0b 7f3f 3e27 7c3f f112 7e3f 8325 7f3f
00000250: b5e5 7f3f 32e6 7f3f 56d8 7d3f fb49 813f
00000260: ade8 7d3f 7e36 803f afb4 813f 63d5 823f
00000270: 49dd 7d3f ba6a 803f 7f06 7f3f 8e20 813f
00000280: 5b6e 813f 77d3 7d3f 6e2f 823f 8861 7f3f
00000290: 7155 7e3f c12e 7f3f b02e 803f 676d 803f
000002a0: 2f75 803f 7e74 7c3f 8d5b 803f 3de3 803f
000002b0: b90f 803f fac9 813f eb9f 7e3f 2ed5 803f
000002c0: e955 7b3f 7231 813f cb38 813f 26b5 803f
000002d0: 9438 7f3f ff70 813f 1bf4 803f 0d2f 7d3f
000002e0: 36c3 7d3f 31c7 7d3f 9eb5 803f b3bd 813f
000002f0: 0dbf 7b3f ae36 813f 5f75 7f3f b822 7f3f
00000300: ffad 823f 6bf5 7d3f e476 7e3f 9afb 7e3f
00000310: 0f25 7f3f ba0a 803f de57 7f3f cf8f 7e3f
00000320: f407 813f aa3c 7c3f 87c0 813f 03d0 7e3f
00000330: cb2a 7f3f 0dfa 7e3f 38f5 803f cac9 803f
00000340: 170b 813f 362f 7d3f c7fe 7e3f 4f8b 7c3f
00000350: 5da9 7e3f ff06 7f3f 98a8 7f3f 336e 7f3f
00000360: 061c 803f 3fb2 7d3f cd15 823f 7ff4 7e3f
00000370: d83b 823f 4663 7f3f b947 803f 0df0 7f3f
00000380: 2a7c 813f 1024 7d3f efa3 803f e3ce 813f
00000390: 1d29 803f 5a69 803f 9bbf 7f3f c29a 7f3f
000003a0: 8fdf 7e3f 56b2 7f3f 4dab 7b3f 3f56 823f
000003b0: f8e0 803f 091e 813f fb9b 7f3f 5b38 823f
000003c0: 6640 803f 62be 803f 197e 7f3f f22a 7f3f
000003d0: 18cd 7f3f 821e 813f 1880 7c3f 7ddb 7a3f
000003e0: bbe2 803f 63e2 7e3f f4f5 7e3f 737d 803f
000003f0: 47a9 7c3f 79bf 803f 7c1b 7d3f c508 7c3f

arith.constant30 f4 [1, 1, 128]
-0.016494345 0.005403463 -0.008201882 0.016923917 0.0049694814 -0.01128211 -0.012701051 0.010504035
-0.014225068 -0.0019621192 0.014609462 0.00084466906 -0.013118703 -0.0043230266 -0.0011099515 0.0014274349
-0.0017538606 -0.0015157352 0.002193102 -0.02019961 0.006331794 -0.008723408 -0.013886837 -0.0016894323
-0.0046681375 0.012004463 0.004675916 0.007131149 0.0039902637 0.006926412 0.0067415023 -0.0038171106
-7.547743e-05 -0.004005505 -0.0032061278 -0.0029701672 0.0063737207 0.0012440454 0.011238093 -0.009332784
-0.0015851884 0.004395665 0.014549469 0.00048801405 0.009041536 -0.0051969546 0.00069099595 -0.011767341
-0.010002835 0.011703162 2.1817359e-05 0.01185693 0.008184895 0.014926489 0.01103691 0.008225861
0.011388788 -0.0024276199 0.010180257 0.0062969867 0.006899689 0.0030081721 -0.006343552 -0.011417043
0.025279226 0.015762724 -0.0061497833 -0.010339187 -0.006696221 -0.0020414344 -0.0041779447 -0.0040078983
0.0077379504 -0.019293517 -0.0054237233 -0.0041824724 0.0032420564 -0.023315996 0.0021192788 0.006644791
0.010979967 0.011151345 -0.0023443934 0.007605718 0.0035047329 0.00066940824 0.020110061 0.004120957
0.011720291 -0.0018660559 -0.009954882 -0.011557483 0.00595952 -2.6628263e-06 0.010745549 0.00096033164
-0.005606574 -0.009291625 -0.008670149 0.01653038 -0.009228861 -0.011276152 -0.00021812163 -0.009446768
0.012865543 -0.009055242 0.00032241087 0.0075923046 -0.0050796266 -0.001640493 -0.013560844 -0.010769691
-0.008753925 -0.0019814537 -0.001441514 -0.015092992 -0.005366345 -0.008103978 -0.0046388 -0.01049615
0.013809723 -0.0059364135 0.009409307 -0.012945948 0.010355328 0.005133136 0.009620144 0.007522795
00000000: 261f 87bc 880f b13b 3061 06bc 07a4 8a3c
00000010: 08d7 a23b 99d8 38bc 1218 50bc 1e19 2c3c
00000020: 4210 69bc e696 00bb 865c 6f3c c86c 5d3a
00000030: d4ef 56bc 2da8 8dbb cb7b 91ba c418 bb3a
00000040: cce1 e5ba a2ab c6ba 25ba 0f3b a779 a5bc
00000050: f07a cf3b a0ec 0ebc 9e85 63bc f16f ddba
00000060: 2df7 98bb 5eae 443c 6d38 993b 6aac e93b
00000070: c2c0 823b f5f6 e23b d2e7 dc3b 7d28 7abb
00000080: a349 9eb8 9c40 83bb e61d 52bb 23a7 42bb
00000090: a5da d03b 3d0f a33a fa1f 383c 89e8 18bc
000000a0: 19c6 cfba 8309 903b e560 6e3c 23dc ff39
000000b0: f322 143c 374b aabb f423 353a cecb 40bc
000000c0: eee2 23bc 9fbe 3f3c 6c04 b737 9243 423c
000000d0: f019 063c 3c8e 743c 28d4 343c c3c5 063c
000000e0: 0a98 3a3c b418 1fbb 18cb 263c f456 ce3b
000000f0: c916 e23b c124 453b 92dd cfbb 8d0e 3bbc
00000100: 6116 cf3c d420 813c 1f84 c9bb b265 29bc
00000110: f96b dbbb 96c9 05bb 24e7 88bb b054 83bb
00000120: a28e fd3b 700d 9ebc 7db9 b1bb 1f0d 89bb
00000130: ae78 543b 3001 bfbc 99e3 0a3b 8cbc d93b
00000140: 52e5 333c 22b4 363c 65a4 19bb 6339 f93b
00000150: a9af 653b 3a7b 2f3a dbbd a43c 1809 873b
00000160: 7706 403c 7296 f4ba cd19 23bc 995b 3dbc
00000170: 1448 c33b 02b3 32b6 190e 303c c4be 7b3a
00000180: 5ab7 b7bb e63b 18bc 3e0d 0ebc b86a 873c
00000190: a634 17bc 9cbf 38bc 94b7 64b9 9ec6 1abc
000001a0: 00ca 523c 705c 14bc 4109 a939 dec8 f83b
000001b0: ff72 a6bb d005 d7ba 4d2e 5ebc 5c73 30bc
000001c0: 9f6c 0fbc 47db 01bb 2ff1 bcba 9948 77bc
000001d0: 2ad8 afbb 8cc6 04bc 1301 98bb 0bf8 2bbc
000001e0: 2d42 623c 3f86 c2bb 7e29 1a3c 3e1b 54bc
000001f0: 65a9 293c de33 a83b cf9d 1d3c c781 f63b

arith.constant31 f4 [1, 1, 128]
1.0091636 0.99557054 0.99833506 0.991782 1.0012641 1.0111274 1.0337776 1.011484
0.99696565 0.9864101 1.0009238 1.0112973 0.9966583 1.0002786 0.99080646 0.9995198
1.0095136 1.0053971 0.9893214 1.0053085 0.9884749 0.9869449 0.99648374 0.9932214
0.99067736 0.999341 0.9966357 0.99874204 1.0090458 1.0051254 1.0039711 1.0023215
0.99222994 0.99749196 0.9850857 0.994758 1.0019253 0.99859256 0.99987006 1.0037403
0.98519105 1.000592 0.9991549 0.9986845 1.0028276 0.9945198 1.0155449 1.0036874
1.0255606 0.9728798 0.9956033 1.0047363 0.99048996 1.0152307 0.98542637 0.9899234
0.99805677 0.99993426 0.9876592 0.99232537 1.0023079 0.9967868 1.002315 1.0080156
1.0232569 0.9948266 1.0028858 1.0035938 1.0145539 1.0048034 1.0205389 1.006685
1.0208644 0.99622 0.9798801 1.0051454 1.0020093 1.0012288 1.0015559 0.9992075
0.99817353 0.9935838 1.0033817 0.9922084 0.9976997 1.0065265 1.0135553 0.99522734
1.0006394 1.0086756 0.98655635 1.0044444 1.0010604 1.0024835 0.9976905 1.0067457
1.0228825 0.9986616 1.009967 1.0086166 0.9917236 1.0069221 1.0172197 0.9888825
1.0021812 1.0239182 1.0121061 0.9973212 1.0012246 1.007488 1.0190392 0.9894627
1.0002294 0.9935785 1.0105041 0.99933547 1.008718 1.0214969 1.0040966 1.0024834
0.996835 0.9969788 1.0100242 0.99994814 1.0035927 0.99330395 1.0045294 1.0022058
00000000: 462c 813f b6dd 7e3f e392 7f3f 6de5 7d3f
00000010: 6c29 803f 9f6c 813f d352 843f 4f78 813f
00000020: 2439 7f3f 5f85 7c3f 451e 803f 3172 813f
00000030: 0025 7f3f 2109 803f 7ea5 7d3f 88e0 7f3f
00000040: be37 813f dab0 803f 2b44 7d3f f3ad 803f
00000050: b10c 7d3f 6ca8 7c3f 8f19 7f3f c243 7e3f
00000060: 089d 7d3f d0d4 7f3f 8423 7f3f 8fad 7f3f
00000070: 6a28 813f f3a7 803f 2082 803f 124c 803f
00000080: c802 7e3f a25b 7f3f 942e 7c3f 76a8 7e3f
00000090: 173f 803f c3a3 7f3f 7cf7 7f3f 907a 803f
000000a0: 7b35 7c3f 6613 803f 9ec8 7f3f caa9 7f3f
000000b0: a85c 803f da98 7e3f 60fd 813f d478 803f
000000c0: 9245 833f a70e 793f dcdf 7e3f 339b 803f
000000d0: c090 7d3f 14f3 813f e744 7c3f 9f6b 7d3f
000000e0: a680 7f3f b1fb 7f3f 3cd7 7c3f 0909 7e3f
000000f0: a04b 803f 6b2d 7f3f dc4b 803f a806 813f
00000100: 15fa 823f f5ac 7e3f 905e 803f c375 803f
00000110: e7dc 813f 669d 803f 05a1 823f 0edb 803f
00000120: afab 823f 4608 7f3f 6cd9 7a3f 9ba8 803f
00000130: d741 803f 4428 803f fc32 803f 10cc 7f3f
00000140: 4d88 7f3f 825b 7e3f d06e 803f 5f01 7e3f
00000150: 3f69 7f3f dcd5 803f 2ebc 813f 38c7 7e3f
00000160: f414 803f 481c 813f f58e 7c3f a291 803f
00000170: bf22 803f 6151 803f a568 7f3f 0bdd 803f
00000180: d0ed 823f 49a8 7f3f 9946 813f 591a 813f
00000190: 99e1 7d3f d3e2 803f 4134 823f 6727 7d3f
000001a0: 7947 803f c00f 833f b18c 813f 7150 7f3f
000001b0: 2128 803f 5ef5 803f e06f 823f 6d4d 7d3f
000001c0: 8407 803f 295b 7e3f 3358 813f 73d4 7f3f
000001d0: ac1d 813f 69c0 823f 3d86 803f 6051 803f
000001e0: 9430 7f3f 013a 7f3f 7948 813f 9afc 7f3f
000001f0: ba75 803f 2b49 7e3f 6b94 803f 4848 803f

arith.constant32 f4 [1, 1, 128]
0.012558061 0.013516561 -0.013536501 0.019245667 0.011536537 0.01249613 0.0031234436 -0.012454846
0.0019956303 0.004824801 -0.00055118743 0.0005586367 0.007254061 -0.0010184154 -0.013435347 -0.0010741143
0.0037792583 0.005464611 -0.01759417 0.00054882414 -0.011245172 0.016270898 -0.007374448 -0.00065450947
0.013305111 -0.0053215986 -0.020030936 -0.0032481283 -0.005566057 -0.02352513 -0.007144452 -0.013005756
-0.0032709832 0.008173196 0.011882924 0.024939392 -0.014834146 -0.009188811 -0.0023020864 -0.0039218436
-0.0012203067 0.0067400653 0.018239852 -0.0061740736 -0.015380009 0.0032827037 0.007514874 0.013475252
-0.00773941 0.0051256446 -0.02303345 0.0058272057 -0.020914793 -0.01404495 0.00076650357 -0.022554496
0.014514331 0.0058955546 0.006470468 0.016315361 0.004088089 -0.006319058 -0.044292085 -0.013518241
-0.038044322 -0.021490028 -0.00032921374 0.020611128 -0.021985417 0.023456251 0.011004453 0.00058274565
-6.67829e-05 -0.013928328 0.00046090005 -0.020729203 -0.0100901695 -0.000120880264 0.012540982 0.0074256435
0.0123831695 0.0095405625 -0.010986001 0.017259082 -0.029025368 -0.0043449244 -0.009364641 0.01839597
-0.00041039087 0.026576921 0.035430826 -0.028228544 -0.0071255835 0.009016638 0.0046600807 -0.009036296
0.0006075107 0.010090134 -0.008436484 0.001044754 -0.003959599 0.020145282 0.005812232 0.001311489
0.0051509384 -0.01689909 -0.0047336845 -0.0006330051 0.01648018 0.0022420867 -0.00518816 -0.0047911173
-0.0050909068 0.0026702993 0.0005283798 -0.006815001 -0.0061382735 -0.0073379264 -0.008522616 0.028533023
0.023551885 0.016200485 -0.0046688262 -0.003772056 -0.0074908244 -0.0048987544 0.00049535255 -0.004051833
00000000: 53c0 4d3c 9174 5d3c 33c8 5dbc 17a9 9d3c
00000010: be03 3d3c 91bc 4c3c b0b2 4c3b 690f 4cbc
00000020: 1fc9 023b 5d19 9e3b 907d 10ba 7971 123a
00000030: 79b3 ed3b 5a7c 85ba ee1f 5cbc 4cc9 8cba
00000040: 6fad 773b 7b10 b33b a621 90bc f7de 0f3a
00000050: ab3d 38bc 8c4a 853c 5aa5 f1bb 6393 2bba
00000060: aefd 593c ce60 aebb eb17 a4bc 8dde 54bb
00000070: 7863 b6bb c6b7 c0bc 021c eabb 1816 55bc
00000080: fe5d 56bb dee8 053c 98b0 423c b24d cc3c
00000090: eb0a 73bc ab8c 16bc 9ade 16bb cf82 80bb
000000a0: b3f2 9fba c4db dc3b be6b 953c e24f cabb
000000b0: 6ffc 7bbc a122 573b 553f f63b 4ec7 5c3c
000000c0: e09a fdbb 06f5 a73b a5b0 bcbc 25f2 be3b
000000d0: 8055 abbc ca1c 66bc 2fef 483a 35c4 b8bc
000000e0: 84cd 6d3c 7f2f c13b 3806 d43b cba7 853c
000000f0: 60f5 853b 1a10 cfbb 9e6b 35bd 9d7b 5dbc
00000100: 5dd4 1bbd db0b b0bc 529a acb9 abd8 a83c
00000110: c31a b4bc 5327 c03c 054c 343c 66c3 183a
00000120: cc0d 8cb8 a433 64bc f5a4 f139 4ad0 a9bc
00000130: 3d51 25bc 1981 fdb8 b178 4d3c d052 f33b
00000140: c7e2 4a3c 0550 1c3c a1fe 33bc eb62 8d3c
00000150: 9cc6 edbc de5f 8ebb 276e 19bc 25b3 963c
00000160: bb29 d7b9 d8b7 d93c ea1f 113d 8c3f e7bc
00000170: ba7d e9bb 85ba 133c 97b3 983b f90c 14bc
00000180: 5a41 1f3a 1751 253c 2e39 0abc 21f0 883a
00000190: 86bf 81bb b807 a53c 8974 be3b 45e6 ab3a
000001a0: 34c9 a83b f66f 8abc 061d 9bbb 41f0 25ba
000001b0: 7101 873c f9ef 123b 7101 aabb cefe 9cbb
000001c0: 9fd1 a6bb 3000 2f3b f882 0a3a 5f50 dfbb
000001d0: 9223 c9bb fd72 f0bb 71a2 0bbc 16be e93c
000001e0: e2ef c03c e1b6 843c f4fc 98bb 9934 77bb
000001f0: 9775 f5bb bb85 a0bb 8cda 013a 3dc5 84bb

arith.constant33 f4 [1, 1, 128]
1.0068442 1.0044677 1.007367 1.0140443 0.9956809 1.002793 1.0062532 0.99130845
1.0129958 0.9996218 0.99431926 1.0038004 1.0103283 0.97868603 0.98075336 1.006816
0.9966381 0.9982227 1.005137 1.0015028 1.0054343 1.0077014 0.9907894 0.99581987
0.9962444 0.99833614 0.99287975 1.0023412 1.0037141 1.011045 1.0046195 0.9901548
0.9934265 0.9912127 0.98332995 1.0028747 0.9868117 1.0172688 1.015973 1.0087702
0.98964137 0.9968523 0.990986 0.98627394 1.000014 0.9989114 1.0064137 1.001231
1.0014617 1.0165327 0.99374104 0.998247 1.0010177 1.0231225 0.9959887 1.005663
0.9978385 0.99722433 1.0119085 1.0035442 1.0074959 0.99443144 1.0097697 1.004996
0.9981469 1.0022736 1.0079341 0.99585265 1.0199077 0.98781735 1.0016538 1.0033083
0.99394226 1.0005175 0.9995197 0.9995502 1.020971 0.9939745 0.9913036 1.0065458
0.9994797 0.9964503 0.99310464 0.9957522 0.98901385 0.9868795 0.9974855 0.9966097
1.0154757 0.994375 0.9827773 1.0070347 0.9961374 1.00248 1.0131899 0.9864176
0.9927108 1.0052006 0.9794575 0.9913423 1.0038713 1.0013399 1.0151823 1.004701
1.0061877 0.9929001 0.99286675 0.9930164 0.9896739 0.9929412 1.0330383 0.99811226
1.0002143 0.99679315 0.99533176 0.9917595 0.98615175 0.9985 1.0090483 0.98968893
0.99882936 1.0114921 1.0119848 0.9973094 0.9900523 0.9928374 0.98872674 0.98354053
00000000: 45e0 803f 6692 803f 67f1 803f 34cc 813f
00000010: f2e4 7e3f 855b 803f e8cc 803f 64c6 7d3f
00000020: d9a9 813f 37e7 7f3f b58b 7e3f 887c 803f
00000030: 7052 813f 2b8b 7a3f a712 7b3f 59df 803f
00000040: ad23 7f3f 868b 7f3f 54a8 803f 3e31 803f
00000050: 12b2 803f 5cfc 803f 60a4 7d3f 0dee 7e3f
00000060: df09 7f3f f592 7f3f 5e2d 7e3f b74c 803f
00000070: b479 803f ec69 813f 5f97 803f c97a 7d3f
00000080: 3351 7e3f 1ec0 7d3f 83bb 7b3f 335e 803f
00000090: b19f 7c3f dd35 823f 670b 823f 621f 813f
000000a0: 2359 7d3f b631 7f3f 42b1 7d3f 737c 7c3f
000000b0: 7500 803f a8b8 7f3f 2ad2 803f 5628 803f
000000c0: e62f 803f be1d 823f d065 7e3f 1e8d 7f3f
000000d0: 5921 803f aef5 823f 1ef9 7e3f 91b9 803f
000000e0: 5872 7f3f 184a 7f3f 3886 813f 2374 803f
000000f0: a0f5 803f 0f93 7e3f 2240 813f b5a3 803f
00000100: 8e86 7f3f 804a 803f fc03 813f 33f0 7e3f
00000110: 568c 823f 99e1 7c3f 3136 803f 686c 803f
00000120: 0073 7e3f f510 803f 86e0 7f3f 86e2 7f3f
00000130: 2daf 823f 1d75 7e3f 13c6 7d3f 7ed6 803f
00000140: e7dd 7f3f 5e17 7f3f 1b3c 7e3f 9ee9 7e3f
00000150: 0330 7d3f 23a4 7c3f 365b 7f3f d021 7f3f
00000160: 1cfb 813f 5c8f 7e3f 4b97 7b3f 83e6 803f
00000170: dc02 7f3f 4451 803f 35b0 813f dd85 7c3f
00000180: 4c22 7e3f 6aaa 803f babd 7a3f 9cc8 7d3f
00000190: db7e 803f e82b 803f 7ef1 813f 0b9a 803f
000001a0: c2ca 803f b32e 7e3f 842c 7e3f 5336 7e3f
000001b0: 455b 7d3f 6531 7e3f 993a 843f 4984 7f3f
000001c0: 0607 803f d62d 7f3f 10ce 7e3f f3e3 7d3f
000001d0: 7174 7c3f b29d 7f3f 7f28 813f 415c 7d3f
000001e0: 48b3 7f3f 9378 813f b888 813f ab4f 7f3f
000001f0: 1174 7d3f 982a 7e3f 321d 7d3f 50c9 7b3f
